backend/ml_models/cf_model.pt (torch, 40183 bytes, 21 tensors)

user_embedding.weight f4 [5, 32]
000000 06 ab 88 3c f5 7c 55 3a 86 a4 0d ba 33 cf 0d 3c
       0.016683113 0.0008143925 -0.0005403239 0.008655357
000010 6d fa 4a 3c 8b da 6f 3c 78 36 2b 3b 78 3b 56 3b
       0.012388808 0.014639507 0.0026124995 0.0032689255
000020 7f 9b 3d 3b 18 d8 90 3c 46 65 cc 3c 1e d4 4a bc
       0.0028931794 0.017681167 0.024950635 -0.012379674
000030 f8 a0 d6 3a 7e fb 0f 3c 6e 71 2e 3c 8b 37 b8 39
       0.0016374877 0.008787988 0.010647161 0.00035136598
000040 81 e3 b7 3b 23 3a 8f 3b 30 d5 b3 ba ed b6 86 bb
       0.0056118374 0.004370944 -0.0013720151 -0.004111162
000050 6b 7d 11 3c eb 34 83 bb 49 04 80 3b 6f 4c 8b bc
       0.00888 -0.004004111 0.003906761 -0.01700422
000060 bd 0f b3 3b da aa 63 3c e8 2e e8 3b bc ca 3f bb
       0.0054645226 0.013895715 0.00708567 -0.0029265126
000070 08 ad 05 3c 7d cb 73 3c 00 5d 9d bb 37 4a 93 bc
       0.00815893 0.014880058 -0.004802346 -0.017979724
000080 0a d3 34 3c dd 43 5e bc eb ef 9b 3c bc 86 35 3c
       0.011036644 -0.013565985 0.0190353 0.011079486
000090 7f c2 b6 3c b3 98 a7 3c a5 64 85 3c a8 be c7 3b
       0.02230954 0.020458555 0.016283343 0.006095726
0000a0 63 c5 c1 bc 66 b6 38 bc 8a d9 68 3c 45 04 73 bc
       -0.023653692 -0.011273956 0.014212022 -0.014832561
0000b0 bc 16 49 bc 68 9a be 3b 21 0f 2c bc 6f 6a dc bb
       -0.012273487 0.0058167465 -0.010501654 -0.006726555
0000c0 1e 06 a4 bc 3c 6c 86 ba 48 1d 93 3c 04 ed a4 38
       -0.020022448 -0.0010255645 0.017958298 7.864277e-05
0000d0 b1 52 74 bc 21 37 12 3b e9 1d 2b 3c 72 cb 10 3c
       -0.014912293 0.0022310691 0.010444143 0.008837568
0000e0 9b c4 05 bb 9e f3 48 3b 4a 02 cf bc 2a 45 e6 3c
       -0.0020411375 0.0030662785 -0.025269646 0.028109152
0000f0 c8 a7 92 3c 3a c8 a1 3c 5b ef 2f bc 91 ea 1e 3b
       0.01790227 0.019748796 -0.010738219 0.00242487
000100 ca e9 44 3b 3d c1 09 3c b0 13 d5 3a 10 50 90 3b
       0.0030046576 0.008407888 0.0016256478 0.0044040754
000110 80 b7 b2 3b a9 46 9f 3b b9 0e 0d 39 14 4c ba bb
       0.005454004 0.0048607183 0.00013452292 -0.0056853388
000120 4e d0 f2 bb 19 38 4c 3c 5e 6e cf ba 20 f0 59 3c
       -0.0074100858 0.012464547 -0.0015825739 0.013301879
000130 4f 58 29 bc df 76 59 3a fc 39 0c 3b 58 86 47 bc
       -0.010335996 0.0008295606 0.0021396866 -0.012178026
000140 a9 e1 ed bb 49 f7 3d bc f1 60 cd bb 67 b9 61 bb
       -0.007259567 -0.011594602 -0.00626766 -0.0034442784
000150 fa 6c 89 3c 98 d2 cf b9 7a 9e 5e 3c e1 0d 11 bb
       0.016775597 -0.0003963902 0.013587588 -0.0022133517
000160 2d a2 29 3c a5 64 19 3c 28 d2 ac 3a 5a 51 e5 3a
       0.010353607 0.009362374 0.001318519 0.0017495558
000170 57 81 aa 3a 0d 2c e3 3b ee 6d 29 3a 55 95 f1 ba
       0.0013008517 0.0069327415 0.0006463219 -0.0018431345
000180 f2 dc 9b 3b 84 b1 78 bb 78 af 47 3a 02 09 34 3c
       0.0047565633 -0.0037947604 0.00076173944 0.010988476
000190 eb b3 93 bb bd 9e e6 3b c6 6b ac 3c 45 0a ec bb
       -0.004507532 0.007037966 0.021047484 -0.0072033727
0001a0 54 bc 71 3c 4e 20 e1 3c e3 c8 7c 3b 6c 40 6a 3b
       0.014754374 0.027481224 0.0038571886 0.0035743965
0001b0 6a c2 9b bb 7f de 97 bc 8c 65 ab bb f2 ef 31 bc
       -0.0047534006 -0.018538712 -0.005230611 -0.01086043
0001c0 e9 76 ff 3a d2 74 94 3b 9e 16 22 bc 12 d9 6f 3c
       0.0019490394 0.0045305276 -0.009893088 0.014639156
0001d0 fd 0f 52 bb 06 a0 1d bd 9e 98 fb bc 07 b5 18 3c
       -0.0032052987 -0.03848269 -0.030712422 0.009320504
0001e0 26 fc 2f bc f3 dd 0a bc e6 f0 c8 ba 79 00 16 bc
       -0.010741269 -0.008475768 -0.0015330582 -0.009155386
0001f0 12 23 f5 b8 fe 26 a3 bb 44 33 ec 3b ea 7f 36 3a
       -0.00011689043 -0.0049790135 0.00720826 0.00069618097
000200 b3 82 42 3b fa e4 fe 3a 24 6a c1 3b 40 55 ca bc
       0.0029679954 0.0019446902 0.0059025455 -0.024698853
000210 97 f6 f3 bb 1c 7f 2f bc ef c6 98 3b 16 4f dc 3b
       -0.0074451673 -0.010711458 0.0046623866 0.006723295
000220 cb e6 96 3c fa 0f 11 bb e5 90 38 bc da ff cb bb
       0.018420598 -0.0022134767 -0.011265014 -0.0062255682
000230 a0 0f a1 b7 46 a7 da bc ca 21 9d 3c fd 98 31 3c
       -1.9199972e-05 -0.02669109 0.019181151 0.010839698
000240 b8 a3 9b 3b 0f a1 89 bc d9 20 5a 3b 31 1e 52 3c
       0.0047497414 -0.016800432 0.003328374 0.012824581
000250 09 85 f6 bc c4 f6 80 bb 02 f6 37 3c 2c af 7b bc
       -0.030092733 -0.0039356668 0.011228086 -0.015361588
000260 c5 03 07 3c ae b2 aa bc 85 f0 88 3c 9d 0c 26 3c
       0.008240645 -0.020837154 0.016716251 0.010134843
000270 86 18 33 bc dc b1 2f 3b 4d 18 46 bc c4 b4 9e 3c
       -0.01093114 0.0026808893 -0.012090755 0.019373305

item_embedding.weight f4 [12, 32]
000000 6c e0 c6 b8 ef 96 12 bb 48 5e 43 bc 8f 0b b8 bc
       -9.4831776e-05 -0.0022367795 -0.011924334 -0.022466449
000010 d3 1d 31 bc 7d 82 b8 bb 82 bf 22 3c 5b 11 92 39
       -0.010810333 -0.00563079 0.009933354 0.0002786022
000020 49 8b 6b bb 5a 84 9d 3b 69 da 0a 3b 10 2f 93 3c
       -0.0035941175 0.0048070373 0.0021187312 0.017966777
000030 5b 96 7e 3b 94 d1 f4 ba 88 6d 07 bb 47 f0 da bb
       0.0038846943 -0.0018678182 -0.002066465 -0.0066814753
000040 56 26 31 bb c6 e2 d6 3b 62 db 34 bc a1 39 cd 3b
       -0.0027030907 0.006557795 -0.011038633 0.0062629734
000050 20 f1 5a bc 01 fa 25 bb 2e 0b 7b bc 50 77 39 ba
       -0.013363153 -0.0025326016 -0.01532249 -0.0007074969
000060 52 96 c4 3b d5 c3 66 bb 83 b8 b9 bb eb 2c 97 bc
       0.005999365 -0.003521194 -0.0056677475 -0.018454036
000070 06 00 13 3b 2e 56 0f bb 09 75 c9 3c 1c df 95 bc
       0.0022430434 -0.0021871435 0.02459194 -0.018294863
000080 04 08 b4 3b fe 66 bd 3b 27 d0 1b bc 32 82 65 bc
       0.0054941196 0.0057801 -0.009510077 -0.014008092
000090 2f 21 34 bc a0 41 b2 bc 50 80 de bb a4 02 50 bc
       -0.01099424 -0.021759808 -0.0067901984 -0.012695942
0000a0 fb 46 83 3c 26 a7 51 bc f1 0a 23 bb c6 e2 03 bc
       0.016025057 -0.012796199 -0.0024878348 -0.0080496725
0000b0 3d 40 55 3b f3 38 4e 3b da 93 c0 3b a5 05 85 bc
       0.003253951 0.003146705 0.0058770003 -0.016238043
0000c0 10 01 f0 bb 4b 1f 81 3b 66 47 d8 3c 30 12 3b 3c
       -0.0073243454 0.003940498 0.026401233 0.01141791
0000d0 0b fe 54 bc c0 44 43 3b b1 0b 24 3c a4 34 0e bc
       -0.013000022 0.0029795617 0.010012553 -0.008679543
0000e0 0c a4 5b 3b 3a b5 21 bc 15 33 22 bc 5e 37 03 bc
       0.0033514528 -0.009869868 -0.009899874 -0.008008806
0000f0 2e 4e 49 bb 7d 28 c0 3c b3 db 62 3b ca 83 3a 3c
       -0.0030716765 0.023456806 0.0034615814 0.01138396
000100 07 16 dc ba 92 87 38 bb 5e b6 d8 ba d0 1d fe bb
       -0.0016791233 -0.0028156978 -0.0016533842 -0.007755019
000110 8c e2 17 3c cd 87 2c 3c 2c d2 23 3c 89 04 ce 3a
       0.009270322 0.010530424 0.009998839 0.0015717904
000120 6a e9 1f 3a 45 bd 56 bc 5b 4b c2 3a 34 79 14 3c
       0.000610015 -0.013106649 0.0014823483 0.0090621
000130 55 f9 44 bb 98 42 5e 3b ff dc a3 bc 48 8c 74 bc
       -0.003005584 0.0033914205 -0.02000284 -0.014926024
000140 d4 f7 b3 bb 66 c2 47 3b a2 41 67 bc b8 9d ec ba
       -0.00549219 0.003048086 -0.014114769 -0.0018052375
000150 8d 40 07 bc 26 9c 8b bb b5 f4 2e bc a0 fb b4 bc
       -0.008255136 -0.0042605577 -0.01067846 -0.02209264
000160 7a 93 bd 3b 3c 11 c9 bb c1 1b 0e 3c 3f 6d b9 3b
       0.005785403 -0.0061360877 0.008673609 0.005658775
000170 6c 39 ec 3c ea f3 dc bb c4 16 a2 bc b5 cb cf 3b
       0.028835975 -0.006742944 -0.019786246 0.0063414224
000180 ad c6 79 ba 30 4d a1 ba 02 62 d7 bb 39 bb 0c bc
       -0.0009528201 -0.0012306329 -0.0065729627 -0.008589559
000190 7f dd dc bb 4c 35 45 bc 8d ec bd ba 59 70 29 3c
       -0.0067402716 -0.012036633 -0.0014490053 0.010341727
0001a0 bb ac 20 bc 35 4b 99 3b c7 c8 bc bb a7 aa 43 3b
       -0.009806807 0.004678155 -0.005761239 0.0029856355
0001b0 2b b7 26 bc 4e f3 e4 38 2e 66 17 bb 6c e0 9b 3b
       -0.010175507 0.00010917206 -0.0023101675 0.004756978
0001c0 34 83 0a bc 6e c1 0d bb 49 3d fa 3b df 30 46 ba
       -0.008454133 -0.0021630186 0.0076367003 -0.0007560383
0001d0 3f 90 3b 3c 86 7a da b9 47 b8 6d 3c 4e 7e 4f 3c
       0.011447965 -0.00041671487 0.014509267 0.012664391
0001e0 b2 72 1e bc 73 80 73 3c 34 56 f5 bb 6e b5 5b bb
       -0.0096709 0.014862168 -0.007487083 -0.0033524889
0001f0 b1 90 7f 3c 05 16 ae bb a1 28 94 3b 49 eb d1 ba
       0.015598462 -0.0053126835 0.004521445 -0.0016015555
000200 57 aa 02 3b 09 9c 6a bc ea b2 19 3c e0 b4 dc 3b
       0.0019937956 -0.014319428 0.009381035 0.006735429
000210 e1 c5 3c 3c 58 82 05 3c bf 34 57 3c 97 fe 5d ba
       0.011521787 0.008148752 0.013135134 -0.0008468418
000220 e6 78 8d 3b 38 4e 1f 3c 9c 22 3a 3c e8 54 c0 bc
       0.0043173907 0.009723239 0.011360791 -0.023477986
000230 80 43 e1 bc be ba 92 b8 41 92 63 bc 93 a5 75 bc
       -0.027498007 -6.996606e-05 -0.01388985 -0.014993089
000240 8b b7 94 bc fc df 98 3b a0 65 8f 3b 42 08 93 3b
       -0.018153926 0.004665373 0.0043761283 0.0044870684
000250 fe 60 04 bb 91 6e 24 3b 91 24 29 3c df 75 ed bb
       -0.0020199413 0.0025090317 0.0103236595 -0.0072467173
000260 bd 0f 94 bc 62 14 68 3c fa 03 a7 bc 81 f1 10 3c
       -0.01807391 0.014165016 -0.020387638 0.0088466415
000270 73 71 d2 bc 35 c1 a0 bb 75 98 97 3c 34 31 92 bb
       -0.025688862 -0.0049058446 0.018505314 -0.004461432
000280 de 32 13 3c 9e b1 99 3a 2e ac 2c ba 9a fb 96 bb
       0.008984296 0.0011725908 -0.0006586936 -0.00460763
000290 81 21 c5 bb 12 3b 60 3b 47 dc 60 bb ec 69 68 3c
       -0.006015957 0.0034214896 -0.0034310983 0.01418541
0002a0 94 42 ed 3a fe 72 d9 bb df b5 00 3c da 3f 5d bc
       0.0018101507 -0.0066360226 0.007855861 -0.013503993
0002b0 af 0d 1f 3c df 88 ab 3c 86 67 17 bb 05 ab 33 bb
       0.009707852 0.020939289 -0.0023102476 -0.0027415168
0002c0 a1 6f c0 3b 5f 85 e0 bc b0 72 3e bc e1 c4 cb bc
       0.005872682 -0.027407346 -0.011624023 -0.024874153
0002d0 71 8d db 3b fd 81 5e 3b bc ad 65 3c 80 1b 41 bc
       0.0067002107 0.003395199 0.014018472 -0.011786342
0002e0 62 94 8d 3c ff 74 35 3c 1a 00 0b 3a 65 e0 0e bc
       0.017282669 0.011075257 0.00053024443 -0.008720492
0002f0 01 91 f0 bb 3d c8 29 bc 89 ef a9 3b ac c7 95 bc
       -0.0073415046 -0.010362682 0.0051860255 -0.018283688
000300 9a 2f 69 bc 1a a9 87 3c 70 a5 54 3b 82 a7 73 bc
       -0.0142325405 0.016560126 0.0032447241 -0.01487148
000310 f0 4d 85 3b fb 34 30 ba 2a 79 35 bc 98 a1 05 bd
       0.0040681288 -0.0006721762 -0.011076251 -0.03262481
000320 28 e3 ed bb 17 ea 97 3c 30 a4 d7 bc 22 23 51 bb
       -0.007259745 0.01854424 -0.026323408 -0.003191181
000330 4c 1e f7 39 65 a2 95 3b 01 b7 c8 bb 78 3d 13 3c
       0.00047134084 0.004566478 -0.0061253314 0.008986823
000340 cd 34 f5 ba 94 56 b9 3b 68 d3 d0 b9 68 d5 5f bc
       -0.0018707752 0.005656073 -0.00039830361 -0.01366172
000350 41 3d 2b 3b e5 1f 30 bb 8c 1a 49 3b 48 55 05 bc
       0.002612904 -0.002687448 0.003068599 -0.008138008
000360 de 56 a9 bc 3f 1a 5e 3c 06 b8 95 3b 68 ad 69 3c
       -0.020671304 0.013556062 0.0045690564 0.014262535
000370 28 95 23 38 82 36 96 3b 09 62 f9 bb a0 5f 6f 3c
       3.900114e-05 0.0045841346 -0.0076105637 0.014610201
000380 e6 3d 6f bc 9f a6 70 bb f9 8e e2 3b 4c 88 4c bb
       -0.01460216 -0.0036720408 0.0069140163 -0.003120917
000390 50 0c 9c ba db de 08 3d 6a 1a ef bc 03 a5 f2 3a
       -0.0011905525 0.033415657 -0.0291874 0.0018512312
0003a0 ca ca fc 3b d7 6b d6 bb 70 8b a4 3c e8 35 b2 b9
       0.007714604 -0.006543617 0.02008602 -0.0003399097
0003b0 d9 60 23 bb 35 7b 9a bb 39 b9 c3 3b de e6 8a 3c
       -0.0024929552 -0.0047143945 0.005973008 0.01695579
0003c0 20 d9 68 bb b7 b0 98 bc d7 2c cc 3b b8 64 af 3b
       -0.0035529807 -0.018638952 0.0062309313 0.005352583
0003d0 d3 f6 f2 3b a1 44 2b bb ac 8d 45 bb 0e fa 06 3c
       0.0074146776 -0.0026133435 -0.0030144257 0.008238329
0003e0 e4 2e 25 bc 22 fa fe bb ab 48 a8 bb 38 0a 0d 3c
       -0.01008198 -0.007781283 -0.005135616 0.008608393
0003f0 e4 1c 72 3c b0 5c 7c bb 01 54 16 bc 4f c9 53 3b
       0.014777396 -0.0038507394 -0.0091753015 0.0032316034

mlp.0.weight f4 [64, 64]
000000 e4 5b 10 bd 62 47 12 bb a3 c8 d8 3d 56 97 14 be
       -0.035243884 -0.002232038 0.105851434 -0.14510855
000010 3c bd d4 3d a3 a2 3e 3e 32 aa 46 be 5a a8 eb bd
       0.10387656 0.18616728 -0.19400862 -0.1150672
000020 41 29 03 be 7b fd f8 39 a8 fb 50 be 01 d7 e0 3d
       -0.12808706 0.00047491104 -0.20408499 0.10978509
000030 f9 7b 28 be b6 25 50 be 9c 1b c6 3d d6 2b 15 be
       -0.16453542 -0.20326886 0.09673235 -0.14567503
000040 2e 99 19 3e 4e c3 bb 3d aa 5a 43 be bd 40 6c 3d
       0.1499984 0.09168111 -0.19077554 0.057678927
000050 40 5b d1 3d cd b2 54 be 01 c5 04 3e 8e f1 1a be
       0.10222483 -0.20771332 0.12965776 -0.15131208
000060 cc 33 4d bd 36 9d 86 bd 7d 7a e1 3d 44 9b 1a 3e
       -0.050098225 -0.06572954 0.11009691 0.15098292
000070 a7 7a 1f be e1 fe b7 3d 91 15 8a bd e7 9a e0 bd
       -0.15574132 0.08984161 -0.06742395 -0.10967045
000080 06 d8 06 3d db b2 38 3e 93 c1 43 be 0f c1 07 3e
       0.03292086 0.18036978 -0.19116811 0.1325724
000090 32 81 2c bd 44 2e e9 3d a4 d9 1e be 80 a9 aa 3d
       -0.042115398 0.113857776 -0.15512711 0.08333111
0000a0 be 68 cd bd d9 e8 db bd 0c 2a f5 bc 67 9a fb 3d
       -0.100297436 -0.107377715 -0.029927276 0.12285309
0000b0 9b c1 24 3e 1c 7d 83 3d df 78 d5 3d 8f f7 51 3e
       0.1608948 0.06420347 0.10423445 0.20504592
0000c0 ff b5 4f bd 57 90 b8 3c 2d 6e af 3d 28 d2 18 bc
       -0.050710674 0.022529764 0.08565936 -0.009327449
0000d0 9f 1d 51 3e b1 fb a1 3c 37 12 be 3d c8 cf 4b 3d
       0.20421456 0.019773336 0.09280818 0.049758703
0000e0 4b 64 48 be bb 58 50 bd 28 6d 12 bc 82 64 cd 3b
       -0.19569509 -0.05086587 -0.008937158 0.006268085
0000f0 ac 95 2a be a6 44 8a bd cc 1a 43 be 50 c8 28 3e
       -0.16658658 -0.06751375 -0.19053191 0.16482663
000100 db c3 38 3d 67 57 ab bd 13 b3 0e be f6 f3 28 3e
       0.045108657 -0.0836628 -0.13935499 0.16499314
000110 a8 f0 69 bd e1 8b 27 3e 7a 4d a9 3d 46 d6 ab 3d
       -0.057114273 0.16361953 0.082667306 0.08390479
000120 41 4d f0 bd d7 e3 e1 3b 9c 50 2d 3e f0 4c 03 3e
       -0.11733485 0.0068936157 0.16925281 0.12822318
000130 e8 1b bf bc cd f8 3d 3e f6 b8 9b 3d 2a 62 59 3c
       -0.023328736 0.18551941 0.07603638 0.013268033
000140 d7 5d 38 be 30 8c b5 3d 98 0c f4 3c 29 b0 df 3d
       -0.18004547 0.08864629 0.029791161 0.10922272
000150 b0 98 39 bd 5f c1 b0 bd 48 d6 18 be 69 c8 1a 3e
       -0.04531163 -0.086306326 -0.14925492 0.15115513
000160 11 53 4e 3e aa 24 04 be 1d e4 0c be b7 a2 d5 3d
       0.20148875 -0.12904611 -0.13758893 0.10431426
000170 3a be d0 3c 3b b5 d2 bd ae c6 12 3e 24 2b e6 3d
       0.025481332 -0.10288473 0.14333603 0.11238697
000180 c3 98 90 3d 63 ed 0d 3e 3c d0 64 bd 09 e8 e4 bd
       0.07060387 0.13860087 -0.05586265 -0.1117707
000190 7b a5 55 be fe 06 2c 3e c4 6d 20 be f7 94 4c 3e
       -0.20863907 0.16799542 -0.15666872 0.199787
0001a0 5f e3 5d 3e 9e af 19 3e 7f 4a fb 3d c7 bb fb 3c
       0.21668766 0.15008399 0.122700684 0.030729188
0001b0 65 2a cc 3b 59 58 55 3c 41 51 41 3d 15 2b 84 3c
       0.0062306398 0.013021552 0.04719663 0.016133824
0001c0 c7 2f 15 3e c8 ae 70 bd 14 e3 14 be 9e 73 1e 3e
       0.14569007 -0.058760434 -0.14539748 0.15473792
0001d0 4f 17 fb 3d 38 40 24 bc 61 c5 a8 bd f1 e2 e8 bd
       0.12260305 -0.010025077 -0.08240772 -0.11371411
0001e0 3e 94 61 3d 54 7b 3f be cd ce 4a 3e 1b 9c 94 bc
       0.055073015 -0.1869939 0.1980545 -0.018140843
0001f0 37 ec 21 bd 99 ab a5 bc fc b0 bc bb 78 61 4a bd
       -0.039531913 -0.020223426 -0.005758403 -0.04940936
000200 6a 76 f2 3c 95 46 05 3e 62 65 12 bd 6f 64 c9 bd
       0.02959748 0.13015206 -0.035741217 -0.09833609
000210 ae 84 0a 3e f8 6d 26 3e 5b d2 26 3e 6b 7c 13 3e
       0.13527176 0.16252887 0.16291182 0.1440293
000220 c0 d3 37 be b7 33 18 3e 8a 0c 0d 3e ba eb 45 3e
       -0.1795187 0.14863478 0.13774315 0.19328204
000230 ed 18 0a 3d 94 96 df 3b bf 77 65 3c 35 d3 33 be
       0.033715177 0.0068233702 0.0140056005 -0.17561038
000240 4d ab 12 be ad 5f 50 3e 07 8a 94 3d ce 2a 80 3b
       -0.14323159 0.20348997 0.07252889 0.0039113527
000250 89 f5 0f be 90 da 41 bd 06 b9 dc bd d9 77 8a bd
       -0.14058508 -0.047327578 -0.10777478 -0.067611404
000260 e8 2e 31 3e 88 80 0a 3b 09 ec 00 be 39 ba 51 3e
       0.1730305 0.002113374 -0.1259004 0.20481195
000270 57 8f ef 3d 39 73 21 3d a6 a4 03 3e 2e 80 c1 bd
       0.11697262 0.039416526 0.12855777 -0.094482765
000280 c1 71 a0 3d 66 bc 98 bd 3c 18 1f 3e 1f 90 bb bd
       0.07834197 -0.07457809 0.15536588 -0.09158348
000290 0d 25 8b bc f8 08 a4 3d 26 ad 0f be 60 87 ed bd
       -0.01698544 0.08009523 -0.14030895 -0.11598086
0002a0 0d e1 45 be 9a 64 6c 3c a5 83 5a be e0 ab 05 3e
       -0.19324131 0.014428282 -0.21339281 0.13053846
0002b0 94 c6 39 be dc 39 e0 bd 25 f8 31 3e 92 70 2d bd
       -0.18142158 -0.10948536 0.17379816 -0.042343684
0002c0 48 77 5c be a4 56 1f 3e b5 3b 58 be 82 34 97 3d
       -0.21529877 0.15560395 -0.21116526 0.07383062
0002d0 23 37 66 3e a9 35 80 bc 16 67 4f 3c 96 15 11 3c
       0.2248197 -0.015650587 0.012658855 0.008855244
0002e0 e9 ab f9 bc a7 94 56 3e 2e 3b 15 3c 58 8a 54 bd
       -0.030477481 0.20955144 0.009108348 -0.051889747
0002f0 00 a6 19 3d 27 e0 33 be 66 30 9e bc a4 90 9b 3d
       0.037511826 -0.17565976 -0.019310188 0.075959474
000300 6c 39 74 3d 6f 45 f2 bd 9a bf 37 3e 2e a5 1c 3e
       0.059625074 -0.1182965 0.17944184 0.15297386
000310 93 b6 35 be 71 b3 fd 3b 0b 08 ac bd d8 37 2c be
       -0.17745428 0.0077423383 -0.083999716 -0.16818178
000320 a4 1a 05 be 19 9d 35 3e d3 cc 20 be 5f 46 19 3c
       -0.12998444 0.17735709 -0.15703134 0.009355157
000330 e2 79 26 be e3 95 3d be 08 f8 2c 3d 5c a0 43 bd
       -0.16257432 -0.18514208 0.04222873 -0.047760352
000340 ef 00 17 be 5d 58 a3 bd 59 a6 89 3d 24 eb ee 3d
       -0.1474645 -0.07975838 0.067211814 0.11665943
000350 d3 6a 48 bd 45 e1 27 3e a1 33 a9 bd ab 7d bd bd
       -0.04893 0.16394527 -0.082618006 -0.09252485
000360 ad 0c 30 be 22 ee 09 be 23 7b 31 3e 44 fe 34 be
       -0.17192335 -0.13469747 0.17332129 -0.1767512
000370 b2 f3 f1 bc c1 75 33 3d ca d7 42 be 91 de ab bc
       -0.029535148 0.04381347 -0.1902763 -0.020980151
000380 36 41 83 3a 92 1b 03 be dd af ee bb 17 5b 09 3d
       0.0010013941 -0.12803486 -0.007284148 0.033534136
000390 4f 54 36 be 74 2d 61 3d 1c 9f 1c be e6 43 e2 3d
       -0.17805599 0.054974988 -0.1529507 0.11048107
0003a0 71 a7 b5 3d aa 2c 08 3e c8 2b 41 bd 1a 9b d8 bd
       0.088698275 0.13298288 -0.047160894 -0.10576458
0003b0 3a 61 0b be c7 9a 18 be 0b f4 1b bd eb fe d4 bd
       -0.13611308 -0.14902793 -0.038074534 -0.10400184
0003c0 1a dc 6a bd 1a dd 09 3e 08 44 9f bd c3 4c 27 3d
       -0.05733881 0.1346325 -0.07776648 0.04084469
0003d0 28 2b 96 3b b1 5f 50 be fb 26 0f 3e 50 9f 2c bd
       0.0045827813 -0.20349003 0.13979714 -0.04214412
0003e0 2d 37 0b 3d c5 74 c0 bd 82 4d 58 be 27 f8 cc 3c
       0.033988167 -0.09397272 -0.21123317 0.025020672
0003f0 62 ad 42 bd 0d 3e 1f 3a 36 8f d3 bd c3 62 39 bd
       -0.047528632 0.0006074615 -0.1033005 -0.045260202

mlp.0.bias f4 [64]
000000 38 7d ca 3a 60 e9 f1 b9 16 ae 4f bb 2a ba 88 bb
       0.0015448695 -0.0004614098 -0.0031689457 -0.004172583
000010 5a a2 0a 3c c7 f3 d2 38 31 04 bd ba 3e 8b 7f bb
       0.008461559 0.000100589874 -0.0014420805 -0.0038992907
000020 a8 4d aa 3b ad 8d 01 3c 6a d7 e0 bb b3 d1 ff bb
       0.0051972456 0.007907313 -0.006861617 -0.0078069805
000030 03 49 c8 3b 74 4f 08 3c 61 ec 9f bb 7e d3 01 3c
       0.0061122193 0.008319724 -0.0048804735 0.007923959
000040 50 f0 a6 3b c9 1d a7 3b c4 21 16 bc 31 13 26 3c
       0.0050945655 0.005099986 -0.009163324 0.0101364115
000050 1e c1 e5 ba 76 06 27 bb da cd 2d 3b 6d 50 08 bb
       -0.0017528867 -0.0025486029 0.0026520402 -0.002079989
000060 6d c1 42 bb 6c 9e b1 3b 67 2c 01 3b 40 71 99 bb
       -0.0029717342 0.0054204967 0.0019710304 -0.00468269
000070 41 51 df 3b d6 3e fc 3b e6 7e 2f 3b b5 b5 97 bb
       0.006815106 0.0076979203 0.0026778518 -0.0046298155
000080 22 5f 1f 3b 0f 9b cd 3b d5 50 b8 3b be f4 cf 3b
       0.0024318178 0.006274588 0.0056248703 0.006346314
000090 d6 a6 40 bb 04 13 9c 3b 4a 58 26 3c 40 f3 ca 3b
       -0.0029396317 0.004763009 0.010152886 0.0061935484
0000a0 61 1d 42 3c 15 84 03 3a 7b b2 cd bb 9f 93 7d bb
       0.011847825 0.0005016935 -0.00627738 -0.0038692725
0000b0 cf ea c9 bb ab c6 19 bb 39 c4 7e b9 8b 10 18 3c
       -0.0061620246 -0.0023464363 -0.00024296426 0.009281288
0000c0 b5 6c 0a bc ee 32 a2 3b 90 fd 00 3b e1 b9 e0 bb
       -0.008448769 0.004949919 0.0019682385 -0.006858096
0000d0 f2 d2 92 bb 65 19 a3 3b aa dd f6 bb 52 b0 cb 3b
       -0.004480713 0.0049773925 -0.0075337486 0.0062160874
0000e0 1a 72 ee 3a 6b c3 56 ba 99 b9 82 ba 9f ab af bb
       0.0018191964 -0.00081925717 -0.0009973525 -0.005361035
0000f0 46 04 09 bc e9 45 64 bb 02 fe d9 bb dd c8 20 bc
       -0.008362835 -0.0034831709 -0.0066525945 -0.009813515

mlp.2.weight f4 [64]
000000 13 2d 80 3f f2 15 80 3f 82 64 7d 3f 38 47 7f 3f
       1.0013756 1.0006697 0.9898149 0.99718046
000010 a4 84 81 3f 3c 22 80 3f 69 e8 7e 3f 42 ea 7d 3f
       1.0118604 1.0010448 0.9957338 0.99185574
000020 3a c4 80 3f 0d 52 80 3f 18 fd 7e 3f 1d e4 7e 3f
       1.0059884 1.002504 0.9960494 0.99566823
000030 34 0c 80 3f 3f 79 80 3f 9b 19 81 3f 4a d3 7f 3f
       1.0003724 1.0037001 1.0085939 0.99931777
000040 b9 bf 80 3f 34 6f 7f 3f ba e4 7e 3f 40 51 80 3f
       1.0058509 0.9977906 0.9956776 1.0024796
000050 48 09 7f 3f c7 2f 7f 3f fc 17 81 3f 53 34 80 3f
       0.9962354 0.9968228 1.0085444 1.0015968
000060 90 f2 7f 3f a8 2b 81 3f 1e 89 80 3f b3 22 7c 3f
       0.99979496 1.0091448 1.0041845 0.98490447
000070 e7 0f 81 3f b8 af 7e 3f 26 8d 80 3f a7 d2 7d 3f
       1.0082978 0.99486876 1.0043075 0.99149555
000080 1c e6 7e 3f 48 d1 7d 3f b5 77 80 3f f8 08 80 3f
       0.9956987 0.9914746 1.0036532 1.0002737
000090 fc 62 7d 3f d2 74 80 3f 57 78 7f 3f 8c b5 7f 3f
       0.98979163 1.0035651 0.99793 0.99886394
0000a0 2c 1b 80 3f 56 85 7d 3f 68 f6 7e 3f 4a 88 81 3f
       1.0008292 0.9903158 0.99594736 1.0119717
0000b0 d1 5b 7d 3f 37 fe 80 3f a5 3d 80 3f ea e5 7f 3f
       0.98968226 1.007758 1.0018812 0.99960196
0000c0 4a 88 7f 3f d6 3c 81 3f 7f 18 7f 3f 46 e6 80 3f
       0.99817336 1.0096691 0.99646753 1.0070274
0000d0 69 9b 80 3f 64 b1 7e 3f 81 2c 7e 3f f8 43 80 3f
       1.0047427 0.99489427 0.9928666 1.0020742
0000e0 fd 6e 7f 3f 42 a3 7f 3f be 6f 80 3f 63 14 80 3f
       0.9977873 0.99858487 1.0034101 1.0006222
0000f0 4a d7 7d 3f aa 56 7d 3f 0d b2 7e 3f d5 07 81 3f
       0.9915663 0.98960364 0.99490434 1.0080515

mlp.2.bias f4 [64]
000000 8b 0f 03 3a d5 f9 7a ba e9 42 5e 3b 3e b6 96 bb
       0.00049995695 -0.0009573971 0.0033914393 -0.0045993617
000010 44 0b 43 bb cd be db 3b 67 8f f5 3a 17 b3 0e 3c
       -0.0029761354 0.006706095 0.0018734754 0.0087096905
000020 0a c6 81 3b 4e 30 96 ba de de 05 bb b5 2a f2 3a
       0.0039603757 -0.0011458488 -0.0020427029 0.0018475862
000030 8e 4a f3 3a 01 06 88 bb 04 b9 0b bc 8c 01 60 ba
       0.0018561648 -0.0041511063 -0.008527998 -0.00085451524
000040 9f ca 7d 3b 6c aa 2d 3c bd 75 9c bb 5d c5 23 bc
       0.0038725508 0.010599714 -0.0047747777 -0.009995786
000050 2a 29 d7 bb 03 2a e3 ba eb e6 8a b9 d6 4c dd bb
       -0.0065661864 -0.0017331246 -0.00026493458 -0.0067535443
000060 b3 e9 06 3c ce 4a 84 3b be 2f 8e 3a ca 98 0c bc
       0.008234429 0.0040372377 0.0010847969 -0.00858135
000070 6b 6d 3f 3b 0c 6a b8 bb 0a ae 89 bb 42 47 32 3b
       0.0029209505 -0.005627876 -0.0042016553 0.0027203117
000080 e0 dd 19 bc 7c 8b 91 3b ef 44 c2 3b 6c 0d 16 bc
       -0.009391278 0.0044416767 0.0059286277 -0.009158473
000090 f9 7f 8d bb f4 cd bf 3b 37 c9 09 3c c1 c6 9a bb
       -0.004318234 0.005853409 0.00840979 -0.0047234003
0000a0 04 a3 27 bc 68 ba 12 bc f1 41 37 bb a8 3e 44 3b
       -0.010231737 -0.0089555755 -0.0027962888 0.0029944573
0000b0 b6 6e 66 3b c2 ea 21 bb 0e ee 3e bb 5d f1 f8 ba
       0.0035161204 -0.0024706577 -0.002913359 -0.001899283
0000c0 c1 9b e4 ba 31 c0 27 bb 7e 96 2f 3c 82 f2 30 3a
       -0.0017441438 -0.0025596733 0.0107170325 0.00067500037
0000d0 3e 61 8a 3a 5a 48 78 bb 20 02 72 bb d9 28 87 bb
       0.0010557545 -0.0037884922 -0.0036927536 -0.0041247425
0000e0 04 2f 13 bc 4c 20 ed b9 2d 46 5c 3b d6 d1 bb bb
       -0.008983377 -0.00045228226 0.0033611164 -0.0057318015
0000f0 6b 60 fa 3a 64 12 ef 3b 31 be 93 3b 01 45 af ba
       0.0019102221 0.0072958935 0.0045087566 -0.0013372005

mlp.2.running_mean f4 [64]
000000 90 1b d4 3b 6b 29 da 3b 12 88 01 3c f1 9c 6a 3a
       0.0064730123 0.0066577694 0.007905977 0.00089497777
000010 61 ca 26 3c aa db 13 3b 24 23 d9 3b 59 54 80 3b
       0.010180087 0.002256135 0.0066265035 0.003916305
000020 c7 eb 20 3c c0 7d aa 3b d5 25 99 39 3b c8 83 3b
       0.009821839 0.005202979 0.0002921062 0.004021672
000030 6b 52 82 3b 3b cf 09 3c 76 5a 86 3b a0 25 dc 3b
       0.00397711 0.008411224 0.0041001393 0.0067183524
000040 88 e1 98 3b 2e 6a 54 3b 5c f7 7e 3a 5b 24 8d 3c
       0.0046655573 0.003241192 0.00097261905 0.01722925
000050 e9 e7 df 3a 6a df 18 3b 2e 01 84 3b 40 6a 72 3b
       0.0017082664 0.0023326525 0.004028461 0.00369896
000060 e9 a2 72 3b 86 e6 2a 3c 50 c9 8c 3b ef c1 04 3b
       0.0037023372 0.010430938 0.0042964593 0.0020257195
000070 30 34 c2 3b c8 75 7c 3c 6e 8b 78 3b 1d 0e 7e 3b
       0.0059266314 0.015408941 0.0037924903 0.0038765736
000080 48 41 6d 3b 55 2b 31 3c ea 9c d1 3b fa bd 3c 3c
       0.003620224 0.010813554 0.0063968794 0.011519903
000090 ae 4c 92 3b 9e 69 66 3b 4f c1 51 3c 5e 9f b2 3b
       0.0044647073 0.0035158168 0.012802436 0.005451127
0000a0 82 f3 01 3c 1a 5d e9 3b bf 51 d5 3a f0 c9 23 3c
       0.007931592 0.0071216943 0.0016274973 0.009996876
0000b0 c2 6b 35 3a 6f 7f 39 3b b7 a6 69 3b 20 69 83 3c
       0.0006920659 0.0028304716 0.0035652348 0.016041338
0000c0 ef b1 10 3b 20 ba d9 3b 1f 54 4b 3c f6 b0 3c 3b
       0.0022078713 0.0066445023 0.012410193 0.0028792
0000d0 14 9d a4 3a 88 cb e2 3b e0 67 8b 3b d7 ff b9 3b
       0.001255902 0.0069212355 0.004254326 0.0056762504
0000e0 f7 c7 f2 3b b1 59 67 3a 58 4c 13 3b 10 1b ac 39
       0.0074090916 0.0008825316 0.0022475924 0.0003282656
0000f0 e8 cc 7e 37 d5 9d 90 3b 17 9d 53 3a 19 67 f4 3a
       1.5187288e-05 0.0044133463 0.00080724194 0.0018646448

mlp.2.running_var f4 [64]
000000 32 0f f9 3d bb 1a f9 3d b8 1d f9 3d e5 fe f8 3d
       0.121611014 0.121633016 0.121638715 0.12157992
000010 c0 26 f9 3d 30 03 f9 3d 91 11 f9 3d e2 13 f9 3d
       0.12165594 0.12158811 0.12161554 0.121619955
000020 59 27 f9 3d f6 32 f9 3d 8d fd f8 3d ae 0c f9 3d
       0.12165708 0.12167923 0.12157736 0.121606216
000030 1d 0d f9 3d 8b 16 f9 3d 80 0d f9 3d 84 15 f9 3d
       0.12160704 0.12162503 0.12160778 0.12162307
000040 fa 1b f9 3d 63 0a f9 3d e2 00 f9 3d 9d 35 f9 3d
       0.12163539 0.12160184 0.121583715 0.12168429
000050 e2 08 f9 3d d5 05 f9 3d e1 28 f9 3d f7 09 f9 3d
       0.121598974 0.121593155 0.12166 0.12160104
000060 27 0e f9 3d 35 1d f9 3d e4 13 f9 3d 96 03 f9 3d
       0.121609025 0.12163774 0.12161997 0.12158887
000070 d3 20 f9 3d 82 24 f9 3d 98 19 f9 3d 07 0a f9 3d
       0.12164464 0.121651664 0.12163085 0.12160116
000080 5e 19 f9 3d 22 1b f9 3d 6e 10 f9 3d 4d 3c f9 3d
       0.121630415 0.12163378 0.12161337 0.121697046
000090 30 12 f9 3d ec 18 f9 3d 12 36 f9 3d 30 1e f9 3d
       0.12161672 0.121629566 0.12168516 0.12163961
0000a0 15 19 f9 3d 09 1e f9 3d 6d 06 f9 3d 98 41 f9 3d
       0.12162987 0.12163932 0.12159429 0.12170714
0000b0 dd ff f8 3d 04 08 f9 3d 8a 17 f9 3d cb 21 f9 3d
       0.12158177 0.12159732 0.12162693 0.121646486
0000c0 e6 08 f9 3d 61 1b f9 3d 03 39 f9 3d 88 0e f9 3d
       0.121599 0.12163425 0.12169077 0.12160975
0000d0 db 00 f9 3d 16 25 f9 3d a4 14 f9 3d 75 0d f9 3d
       0.12158366 0.12165277 0.1216214 0.1216077
0000e0 be 10 f9 3d a2 01 f9 3d c7 09 f9 3d 71 fe f8 3d
       0.121613964 0.121585146 0.12160068 0.12157906
0000f0 2d fd f8 3d 39 0b f9 3d 24 00 f9 3d 30 07 f9 3d
       0.121576644 0.12160344 0.1215823 0.12159574

mlp.4.weight f4 [32, 64]
000000 ee 65 92 3d e9 2d 0a be 0f cc 75 3d 61 dc 29 be
       0.07148348 -0.13494076 0.06000906 -0.16587974
000010 5f ea 99 bb e0 dc 12 3e d8 2f 05 bc f9 dd 67 be
       -0.0046971287 0.1434207 -0.008129083 -0.2264327
000020 bc 26 56 be fc 94 10 3e 24 8f 34 be 0f 0b 51 3d
       -0.20913213 0.14119333 -0.17632729 0.051035937
000030 e5 c9 4e be 18 c2 08 be e1 36 e9 3d 5d 15 3f be
       -0.20194204 -0.13355291 0.113874204 -0.18660493
000040 3d 93 3b bb f3 82 0f 3d 11 43 3d 3e 59 40 a2 3d
       -0.0028621696 0.035036992 0.18482615 0.079224296
000050 a0 0f 46 be e3 7c 3a be 57 f7 74 be 66 00 83 3e
       -0.19341898 -0.18211703 -0.23922478 0.2558624
000060 a2 79 6e 3e d7 f4 38 be ba f6 5a be 1d 4f a8 bd
       0.23288587 -0.18062149 -0.21383181 -0.08218215
000070 9c a0 86 bc 2e ca e0 3c ed 44 26 bd 25 20 39 be
       -0.016434006 0.027440157 -0.040593076 -0.18078668
000080 8f b7 4e 3e af c8 7f 3e aa 76 1c be 5c 02 63 3e
       0.2018721 0.24978898 -0.15279642 0.22168869
000090 06 c7 5e 3d d4 e0 16 bd 68 33 f9 3d 61 c4 42 3e
       0.054389022 -0.036835507 0.12168008 0.19020225
0000a0 c9 fb 85 bd ec 74 22 3e 1b 18 4e be 99 3e 2a 3e
       -0.06542165 0.15864915 -0.20126383 0.16625442
0000b0 18 6b 10 3e 98 11 52 3e c4 11 73 3e d2 0c dd 39
       0.14103353 0.20514524 0.23737246 0.00042161957
0000c0 64 d5 36 3e 2d 84 7d 3d fc 58 79 be 4e 94 bc 3d
       0.1785484 0.06189363 -0.24350351 0.092079744
0000d0 98 55 0f be 9a 1a 1c 3d 00 9b 5a 3e 93 83 a2 bc
       -0.13997495 0.038111307 0.2134819 -0.01983813
0000e0 70 41 3a bd 6f 2a 3a 3d 71 e7 06 3e 57 5f 9a bd
       -0.045472562 0.045450624 0.13174225 -0.07537716
0000f0 36 a1 4e 3e dc 7b 99 bd 22 1d 0f 3e 65 23 4e be
       0.20178685 -0.074943274 0.13975957 -0.2013069
000100 69 be c1 bc bc cb 11 be 8b e4 f4 3c 07 9e b9 3c
       -0.023650365 -0.14237875 0.029894134 0.022658361
000110 ef 37 a1 3d 32 81 18 bc 3f 07 d7 3c b9 d1 38 bd
       0.078719966 -0.009308146 0.026248572 -0.045121882
000120 d4 ec a5 bd 1e a4 37 3b 45 a9 6c 3e e3 2f 44 3e
       -0.08101812 0.0028021405 0.23111446 0.19158892
000130 de 20 0a be 3d 2f 01 3e c8 38 19 3e 2f 7d d4 bd
       -0.134891 0.12615676 0.14963067 -0.103754394
000140 5a c2 e7 bd c2 0b 53 3d d7 b0 b3 bd 40 a9 a2 3c
       -0.113163665 0.051524885 -0.08773964 0.019856095
000150 de a1 49 3e 1d 7c 39 3d 0c 3d 09 be b2 60 56 3d
       0.19690654 0.04528438 -0.13402194 0.05233831
000160 4c 25 6e 3e 81 6c 41 be a0 99 e9 3d 44 2a fa 3d
       0.23256415 -0.18889047 0.11406255 0.12215093
000170 cc e3 f8 3d f3 a2 3d 3e 3b 97 eb bd a1 62 59 be
       0.12152824 0.18519191 -0.11503454 -0.2122903
000180 fb c2 06 3d f3 f0 72 be 44 c3 ca bc 9c 2a 67 3e
       0.03290079 -0.23724727 -0.024751313 0.22574848
000190 ef e5 de bd 3d 40 c1 bd d8 ae 43 3e 0b be 60 be
       -0.108837 -0.094360806 0.19109666 -0.21947496
0001a0 2e 86 ea 3d 16 9e 0e 3e b9 96 cb bc bc c2 71 bc
       0.11451374 0.13927492 -0.024852144 -0.014755901
0001b0 9f 61 08 3e d6 ad 13 3d b2 ad 98 bd 55 39 1d 3e
       0.1331849 0.036054455 -0.07455005 0.15353902
0001c0 15 97 bd bd c4 bd 15 be e6 c4 d9 bc 41 6a b7 bc
       -0.09257332 -0.14623171 -0.026583146 -0.022389533
0001d0 b7 91 40 3d 74 f6 5d 3e b0 cf 8f 3d 77 5d b6 bd
       0.047013965 0.21676046 0.07022035 -0.08904546
0001e0 9e 35 e0 3d 41 59 56 be 9b a1 11 be 97 ba c1 3d
       0.10947727 -0.20932485 -0.14221804 0.09459417
0001f0 04 b6 f5 bc 8b 29 6e 3e c6 01 9b bd 5c 0a 11 bb
       -0.029994018 0.23258035 -0.07568698 -0.0022131419
000200 5a d0 c2 bd 11 25 1b 3e 08 ef 5c 3d 71 a2 bd bc
       -0.09512396 0.15150858 0.053938895 -0.023148747
000210 8b fb 80 be 47 be b7 bd 83 c6 b4 bd 6a 0c 69 3e
       -0.25191912 -0.089718394 -0.088269256 0.22758642
000220 f3 29 4e bd e6 c3 81 3d c6 f2 6a 3e 76 79 9d 3d
       -0.050332975 0.06336193 0.22944173 0.076891825
000230 d8 aa 46 3e a4 9c 4d be b5 f8 46 3e 9f 55 90 3d
       0.19401109 -0.20079285 0.19430812 0.07047581
000240 e2 5b 87 3c 3f e5 2a be ac 53 5c 3e 80 1c a2 3d
       0.016523305 -0.16689013 0.21516293 0.07915592
000250 dd b0 13 be 6e 2c 34 be b8 c2 1c be 5c 57 80 be
       -0.14422937 -0.17595074 -0.15308654 -0.2506665
000260 62 b9 c6 3d 79 66 33 bd 56 c1 7f 3e 1d 62 6b 3e
       0.09703328 -0.043798897 0.24976096 0.22986646
000270 e9 28 62 bb 1c e8 c5 bc b6 7f a1 bc d2 64 6e bd
       -0.0034509248 -0.02415853 -0.019714218 -0.05820162
000280 26 26 64 3e 33 31 1f 3e 8c 9d 05 bd 2d 2b c4 bd
       0.22280177 0.15546112 -0.03262095 -0.095785476
000290 6c fe 69 be 8b 44 72 be 26 c5 49 3d c4 96 57 3e
       -0.2285096 -0.2365896 0.04926028 0.21053606
0002a0 5d 51 03 be 38 19 2b bd d9 f1 a3 bc a6 9e 30 be
       -0.12824006 -0.041772097 -0.020012783 -0.1724802
0002b0 e8 6d 18 be 57 b4 63 3c 5f 5b 28 be 8b ea af 3d
       -0.14885676 0.013897977 -0.16441105 0.085896574
0002c0 58 eb fe 3d f7 f0 a5 3d 0f 29 68 3e 9e 09 0a bd
       0.12447232 0.08102601 0.22671913 -0.033700578
0002d0 ad fd 1d 3e 60 0d cf bd 10 d4 4f bd e7 29 67 3e
       0.15428801 -0.10109973 -0.050739348 0.22574578
0002e0 2c 3d 58 be e7 6c 72 be b6 cc 11 bd a9 aa db 3c
       -0.21117085 -0.23674355 -0.03559562 0.026814776
0002f0 94 f3 ca bd 73 ac 30 be e5 ca 04 be 96 6f 9e 3d
       -0.0990974 -0.17253284 -0.12968023 0.07736127
000300 5f 51 34 be 01 ea 0b 3e fb fc 66 3d 9c 7d 1e 3e
       -0.17609166 0.13663484 0.056393605 0.15477604
000310 55 92 d4 bd cd aa d8 bd 3d 24 1e be 4c 6d 3a bd
       -0.10379473 -0.10579453 -0.15443511 -0.04551439
000320 2c db 22 3e 91 0d 43 3e b6 ba d5 3d 34 5d b7 3d
       0.1590392 0.19048144 0.10436003 0.08953324
000330 36 94 c3 3c 13 db 7e be ee b4 64 3e 10 6d ad bd
       0.023874383 -0.24888258 0.22334644 -0.08468068
000340 d6 71 b7 3d 55 dd 6e be 9f 7f e1 3d c9 11 52 3e
       0.08957259 -0.23326619 0.1101067 0.20514597
000350 b3 65 f3 bd fc fc 72 bd ae 6a 64 3e 53 a4 ae bd
       -0.11884632 -0.059323296 0.2230632 -0.08527436
000360 f9 d7 6a be 7e ba ef bd 91 f2 18 3e 20 c0 ff 3d
       -0.2293395 -0.117054924 0.14936282 0.12487817
000370 65 a0 28 be 69 36 3f 3e 32 67 6a 3e 24 bc a3 bd
       -0.16467436 0.186731 0.22890928 -0.07994869
000380 2d a2 40 3d 47 11 b5 bd e3 46 76 be d3 d9 1f 3e
       0.047029663 -0.08841186 -0.24050479 0.15610437
000390 51 af 20 be 66 d9 86 3d b2 8e 4c bc 33 81 4e bd
       -0.15691878 0.06584434 -0.012485193 -0.050416183
0003a0 b3 0e 94 3b 44 a6 73 3d fb ff b3 bc 87 7b 58 bd
       0.004518354 0.059484735 -0.021972647 -0.05285218
0003b0 fc 9b 27 bd 24 fc 78 3a a2 a4 3b be cf 00 60 be
       -0.040920243 0.0009498021 -0.18324521 -0.21875308
0003c0 6c bb 7f be 0e 28 37 3e b9 96 1d bd d3 2c 04 3d
       -0.2497384 0.17886373 -0.03847382 0.03226931
0003d0 22 7f 63 3e 95 72 46 3b d0 43 65 bd 24 be 77 be
       0.22216466 0.0030280699 -0.055972874 -0.24193627
0003e0 e7 0c ba bd a6 19 12 be 19 a5 be bd 9d 6a ca bd
       -0.09084492 -0.14267597 -0.09308834 -0.09883616
0003f0 64 7d fd bd 31 ad fc 3d 9f e2 25 be 45 c9 50 3e
       -0.12377432 0.12337721 -0.1619973 0.20389278

mlp.4.bias f4 [32]
000000 8f be 86 bc 9f e5 aa bb dd 36 21 3b ca 6b d4 bb
       -0.016448287 -0.0052153612 0.0024599351 -0.006482576
000010 d0 df 91 b7 73 24 0d bc 33 cb 81 3a 7b e2 1a bb
       -1.7389568e-05 -0.008614647 0.0009902477 -0.0023633528
000020 40 a0 c4 3a 13 21 ef ba 5f 5d 7d bb bb 0d 52 bc
       0.0015001372 -0.001824411 -0.003866039 -0.012820656
000030 e3 6f 77 bb ab e3 06 3a 70 17 70 3b f8 da d8 bb
       -0.0037755899 0.00051456195 0.0036635064 -0.0066179
000040 8e f9 30 ba 29 ce eb bb c4 2c 8e 3a 03 f8 20 bb
       -0.0006751054 -0.007196207 0.0010847081 -0.002456189
000050 c6 aa 1b 3b fc 8b b4 bb 69 3f 02 3c 62 4e bb bb
       0.0023752912 -0.0055098515 0.0079496885 -0.005716131
000060 c8 47 53 bb 0e 7f b1 bb 07 80 51 bb 9e 51 e6 3b
       -0.003223883 -0.0054167574 -0.003196718 0.0070287725
000070 08 5a 23 bb ef 76 30 bb 30 4e 8c 3b 50 63 aa bb
       -0.002492549 -0.0026926359 0.0042817816 -0.0051998273

mlp.6.weight f4 [32]
000000 51 95 81 3f db c0 7f 3f 4f 41 80 3f 5a 6e 81 3f
       1.0123693 0.9990365 1.0019931 1.0111802
000010 1e 5d 81 3f 16 07 7d 3f b2 6d 81 3f bf c8 7e 3f
       1.0106542 0.9883894 1.0111601 0.99525064
000020 53 22 80 3f 30 8a 80 3f 8e 22 80 3f 78 c1 80 3f
       1.0010475 1.0042171 1.0010545 1.0059042
000030 23 56 7f 3f 6d e4 81 3f 94 0b 7e 3f 25 07 81 3f
       0.9974081 1.0147835 0.99236417 1.0080305
000040 41 6d 7d 3f 57 05 7c 3f 47 e6 7e 3f 08 d3 7e 3f
       0.98994833 0.9844565 0.99570125 0.9954076
000050 ad 31 80 3f e5 61 81 3f 46 da 7f 3f 32 89 7d 3f
       1.001516 1.0108 0.99942434 0.9903747
000060 95 6a 7d 3f 60 08 7d 3f bc b9 81 3f 29 bb 80 3f
       0.98990756 0.98840904 1.0134807 1.0057117
000070 1f cf 7d 3f 80 eb 7d 3f de 6f 7d 3f 54 36 80 3f
       0.99144167 0.9918747 0.9899882 1.001658

mlp.6.bias f4 [32]
000000 77 5f 8e bb 0a 94 79 39 63 6e ce 3a 83 68 62 bb
       -0.0043448764 0.0002380164 0.001574945 -0.0034547157
000010 50 9d 77 bb 83 2a dc 3b 72 71 a8 3b 85 f5 81 bb
       -0.0037782975 0.006718935 0.005140477 -0.003966036
000020 65 75 02 3c 5f 34 5a bc e1 cb 59 bb c0 11 b5 ba
       0.007962559 -0.01331815 -0.0033233094 -0.0013814494
000030 18 dc 94 3b 97 55 ca ba 46 dc eb bb 29 cc f9 b8
       0.004542839 -0.0015436885 -0.0071978895 -0.00011911273
000040 32 86 2c bc ce a5 9e 3b 72 90 2f bc 5d 37 4e bc
       -0.0105300415 0.004841543 -0.010715591 -0.012586442
000050 65 92 0d 39 4c b7 a4 3b de 2f 14 39 46 93 a9 3b
       0.00013501344 0.0050267335 0.00014132212 0.005175027
000060 35 ba c1 3a 0f 6d 86 bb 61 2c 5d 3a ba 1c 5b bb
       0.0014780225 -0.0041023563 0.0008437094 -0.003343387
000070 4d 6f 59 ba 4c 2d a8 bb fb d0 29 bc 07 d0 0e 3b
       -0.0008294478 -0.005132353 -0.010364766 0.0021791474

mlp.6.running_mean f4 [32]
000000 85 03 ae 3e 90 02 8d 3e 7c 34 b3 3e 0a c2 d1 3e
       0.3398706 0.27541018 0.3500098 0.40968353
000010 e2 f7 c3 3e 35 8f dd 3e 02 21 e5 3e 70 41 cc 3e
       0.38275057 0.4327332 0.44751745 0.39893675
000020 82 48 de 3e 69 42 96 3e 84 c8 f1 3e 8c 77 d4 3e
       0.43414694 0.29347542 0.47223294 0.41497457
000030 2a 0f ad 3e 26 73 08 3f 9d d8 d6 3e 9e 9a bd 3e
       0.33800632 0.533007 0.41962138 0.37032026
000040 06 41 c8 3e 81 d4 d1 3e 23 c3 ec 3e b9 73 12 3f
       0.3911211 0.4098244 0.46242628 0.5720783
000050 07 29 ea 3e d5 55 b9 3e 84 ad 04 3f 24 58 a1 3e
       0.45734426 0.36198297 0.51827264 0.31512558
000060 dc 9d d8 3e 19 ab a8 3e 6c 4b e9 3e 57 c0 ee 3e
       0.42307937 0.32943037 0.45565355 0.4663112
000070 89 9b cc 3e b7 d4 a2 3e dc b1 e6 3e b6 be c1 3e
       0.39962414 0.31802914 0.4505757 0.37840813

mlp.6.running_var f4 [32]
000000 19 dd f7 3e 4e a7 9a 3e 3f 41 dd 3e a9 7a 13 3f
       0.48410872 0.30205768 0.4321384 0.5760904
000010 9d d5 04 3f 51 c6 2e 3f 42 f1 27 3f af aa 0d 3f
       0.5188845 0.68271357 0.65602505 0.5533857
000020 4f 0c 15 3f 58 77 c9 3e 3e 0b 1c 3f a0 47 09 3f
       0.58221906 0.39348865 0.60954654 0.53624916
000030 1c 67 05 3f bb 23 5e 3f 5f d2 10 3f ab 16 f4 3e
       0.5211046 0.8677327 0.56571 0.47673544
000040 a5 c2 fb 3e f8 b8 1e 3f 24 79 96 3f 2f 44 81 3f
       0.4917194 0.6200099 1.1755719 1.0098933
000050 c8 63 11 3f 6d ab f7 3e 5b e8 85 3f 3e 84 16 3f
       0.5679288 0.48372975 1.0461534 0.58795536
000060 98 bd 18 3f 6a 27 ed 3e 14 65 87 3f b7 a8 0b 3f
       0.596643 0.46319133 1.0577722 0.54554313
000070 98 6a 36 3f 01 bd fb 3e 2c 56 40 3f 23 b2 04 3f
       0.712564 0.49167636 0.7513149 0.51834315

mlp.8.weight f4 [16, 32]
000000 30 a9 94 3e 3d cb 45 3d c9 aa 5a 3e fa 7c 5d 3e
       0.2903533 0.048289526 0.21354212 0.21629706
000010 9a 9c dc 3d 5f 3d 2b 3e 20 0d 43 be 7b 03 b5 3e
       0.10772057 0.1672263 -0.19047976 0.35354218
000020 e2 9e dd bd 6e 75 2b 3e 77 59 45 bd aa 1c 49 be
       -0.1082132 0.16744015 -0.048181023 -0.1963984
000030 3d 7f 74 be 66 2f b7 be 44 96 86 3e 71 3a 8d 3e
       -0.23876663 -0.3577835 0.2628652 0.2758365
000040 db 02 2a 3e c0 de 73 3d 6d 51 b5 bd 46 70 7f 3e
       0.16602652 0.059538603 -0.08853421 0.24945173
000050 5f 2b 8f bd 32 b0 9d 3d 6c 79 22 3e 0d c3 45 be
       -0.06990694 0.07699622 0.15866631 -0.19312687
000060 9a 2b 5c 3c b1 c8 8e bd 25 31 6d 3e 77 6f 93 3e
       0.01343813 -0.069718726 0.23163278 0.28795978
000070 21 6a e1 bd 20 d4 7b be bc fe f9 bd ae e6 65 3d
       -0.110065706 -0.24592638 -0.1220679 0.056128196
000080 74 cb 37 3e 0d 1c 29 3e 00 36 47 3e f5 37 b0 3d
       0.17948705 0.16514607 0.19454193 0.08604423
000090 8e 0f 4e bd b9 4f 38 bd e4 a0 3a 3d 37 34 78 bd
       -0.050307803 -0.044997904 0.045563594 -0.06059667
0000a0 d8 45 8e 3e 9f bd 2f 3e 37 fd 89 3d 81 e1 ec 3b
       0.27787662 0.17162178 0.0673775 0.0072290306
0000b0 90 3d 77 3d 0a 0e 85 be 30 af fd 39 99 60 88 be
       0.060361445 -0.25987273 0.00048386445 -0.26636198
0000c0 35 56 95 bd a6 df e5 3d b6 51 40 3c 89 f7 d2 3d
       -0.07291833 0.11224298 0.011738231 0.1030112
0000d0 cf d5 c7 3d b4 d2 97 bd b8 04 1a 3e 60 78 67 3e
       0.09757578 -0.07413235 0.15040863 0.22604513
0000e0 ea da e8 bd e3 5e 62 be 0c a0 7c 3e 0d eb 70 be
       -0.113698795 -0.22106509 0.24670428 -0.23527165
0000f0 ee 66 74 3e f4 22 a9 be 2e 87 d2 3d 93 e5 a6 3e
       0.2386739 -0.3303448 0.1027969 0.32597026
000100 23 12 37 bd d2 09 6e 3e 5a a3 f6 3d 60 32 18 be
       -0.04469503 0.23245934 0.120428756 -0.14862967
000110 80 0a b4 3e 82 5d c8 bd 91 f8 c6 3c 15 45 54 be
       0.3516426 -0.0978346 0.024288448 -0.20729478
000120 3b 98 60 bc 26 2d 9d 3e d9 32 de 3a 4e 9f b4 bd
       -0.01370817 0.30698508 0.001695241 -0.088194475
000130 da 2c 90 3e 58 2b 69 be 3c 88 ae bd f5 c1 8d 3e
       0.2815922 -0.2277044 -0.085220784 0.2768704
000140 b9 87 4c be f6 f1 a1 3e 46 e2 20 3e a6 7a 61 3d
       -0.19973649 0.31629914 0.15711316 0.055048607
000150 b6 16 37 3d 66 d4 77 be 70 7e 9b bc a4 4a 9e 3d
       0.044699393 -0.24202117 -0.018981189 0.0772908
000160 06 56 4e 3e da 72 0f be da af d0 bd 25 a6 8b 3d
       0.20150003 -0.14008656 -0.10189791 0.06818799
000170 88 99 a9 be b7 11 57 be 3f a1 82 3e 38 82 9c 3d
       -0.33124948 -0.21002851 0.25513646 0.07642025
000180 82 ed b6 3d 2b 81 11 bd 45 db 1a be dd f4 14 be
       0.0893202 -0.035523575 -0.15122707 -0.14546533
000190 fe 8e eb bd 51 a4 50 3e 0e f3 b0 3e 9e ef 43 3e
       -0.11501883 0.20375182 0.34560436 0.19134375
0001a0 b0 3d 9b 3e ba eb 91 be 87 e1 98 be f5 0a 19 be
       0.303205 -0.28500158 -0.29859564 -0.14945586
0001b0 3d d4 d5 3d 4b fc b6 bc 5a 0d ac be a9 d1 f1 3d
       0.10440872 -0.0223371 -0.33603936 0.118075676
0001c0 d8 6b 10 be 48 fc a3 bd 0c 76 47 be 55 4d f8 bc
       -0.14103639 -0.08007103 -0.19478625 -0.030310312
0001d0 de 67 0b bd c0 b5 62 be 66 bd e6 bc 61 a4 84 be
       -0.034034602 -0.22139645 -0.028166484 -0.2590666
0001e0 99 c1 46 3e ba 36 84 be 26 b5 2b 3e dc 04 6e 3e
       0.19409789 -0.25823003 0.16768321 0.23244041
0001f0 83 f1 04 3e 19 aa ab be 49 c9 e8 bc 11 76 2e 3d
       0.12982754 -0.33528212 -0.028416293 0.042593066
000200 2c f8 56 be 51 e2 8b 3d f1 3f 63 3e b7 81 40 3e
       -0.20993108 0.06830276 0.2219236 0.18799482
000210 e5 e9 46 3e 83 00 a9 bd e0 1d 3c 3e b0 09 a7 3e
       0.19425161 -0.08252051 0.18370771 0.32624578
000220 57 bc ef 3d fa 4c c8 3d 5e 58 b7 be b1 5f a1 be
       0.11705845 0.09780307 -0.35809606 -0.3151832
000230 a9 8a 30 3e e7 44 d3 bd c8 38 82 be f2 1e 9b be
       0.17240395 -0.103158765 -0.25433946 -0.30297047
000240 ed 7f 91 be 07 4f d2 3d bd 93 8d 3c d4 a2 ab be
       -0.28417912 0.102689795 0.017282361 -0.33522666
000250 6c 74 ca 3d b6 bc 0b be 65 92 34 be 4d 1a 06 3d
       0.09885487 -0.13646206 -0.1763397 0.032739926
000260 6e 8d 94 be 65 ec 37 3d de 66 0f be db cf 3a 3e
       -0.29014152 0.044903178 -0.14004084 0.18243353
000270 24 e2 71 3e 15 21 59 be 28 6d b2 be 24 55 ae 3e
       0.23621422 -0.21204026 -0.34848905 0.34049332
000280 fb 53 bb 3b f9 25 99 3d 50 4c 35 be c5 d7 9d 3e
       0.0057167984 0.07477946 -0.17704892 0.30828682
000290 6b 76 2d 3e 03 60 46 be 59 e2 15 be c9 47 6a be
       0.16939704 -0.19372563 -0.14637126 -0.22878946
0002a0 22 e7 9b 3e 33 c9 52 be be ef f7 bd e0 4b 04 be
       0.30449778 -0.20584564 -0.12106274 -0.12919569
0002b0 ae fd 7a bd 67 e7 dc bd f8 66 35 be ce f8 a9 be
       -0.061277084 -0.10786324 -0.1771506 -0.33197635
0002c0 3a 2b 03 3e ae 9f 4e be 43 42 12 be 43 27 80 3e
       0.12809458 -0.201781 -0.1428309 0.25029954
0002d0 be 44 85 be 7c 65 9b 3e 4e 6d a9 3e d7 9f 04 3e
       -0.2602901 0.30350864 0.33091205 0.12951599
0002e0 a3 9c e2 bd 80 fe 6e 3e 44 dc b0 3e 5f 9a 30 be
       -0.11065032 0.23339272 0.3454305 -0.17246388
0002f0 2b 2d 08 3e d7 bf 81 be 01 1b 2a 3d e0 8f 35 bd
       0.1329848 -0.25341675 0.04152966 -0.044326663
000300 5c f7 53 3e fb 21 90 be f9 64 04 be cc d3 fd bc
       0.20699829 -0.28150925 -0.12929143 -0.030984782
000310 bf 8d df bc 94 7c 52 3d ae 24 a9 be a8 26 04 bc
       -0.02728927 0.05138834 -0.33035797 -0.008065857
000320 44 a9 a7 3e d1 9c 2b be 1f b7 88 be 8d 4c f6 3d
       0.32746327 -0.1675904 -0.2670221 0.1202632
000330 a7 0e 24 be d7 0e 2d be da 38 01 3e 7f eb d9 3d
       -0.16021214 -0.16900192 0.12619343 0.106406204
000340 12 3e 55 be 3b 80 6a 3d f3 28 61 be 83 1a ef bc
       -0.20824459 0.057251196 -0.21988277 -0.029187446
000350 8f 0f cd 3d 0d dc b3 3e 64 99 92 3d 23 5c e5 3d
       0.10012733 0.35128823 0.07158163 0.11199214
000360 49 69 49 be f4 b4 a6 be e6 31 fa bd dd bc 48 be
       -0.1966907 -0.3255993 -0.122165486 -0.19603296
000370 60 4d bf bd 7f cc 50 3d a4 76 60 3e c2 9b 63 3e
       -0.0934093 0.050976273 0.21920258 0.22227386
000380 ec 79 42 3e a6 18 63 3b f9 ff a4 be c6 01 3d bd
       0.18991822 0.0034652143 -0.32226542 -0.04614427
000390 0b ac 72 3e 75 04 8e be ec 86 4f be 8e 7f 04 3e
       0.23698442 -0.27737775 -0.20266312 0.12939283
0003a0 0f ad 4e be 40 4b 27 3d f6 0a 5f 3e db 57 63 3e
       -0.20183204 0.04084325 0.21781525 0.22201483
0003b0 2a 16 a7 3d 0f a4 07 be 0f 38 9d 3e e7 c4 8c be
       0.08158524 -0.13246177 0.30706832 -0.27493975
0003c0 6d 3f 24 be b9 f2 86 be 63 63 a8 be b9 3c 7a 3e
       -0.1603982 -0.26357058 -0.32888326 0.24437226
0003d0 c0 f6 18 3e a1 85 bb bd f3 5f 0a 3e 6d 9d 5a 3e
       0.14937878 -0.09156347 0.13513164 0.21349116
0003e0 df 5e 98 3e b0 be 30 3e f1 80 91 be f2 69 48 be
       0.2975988 0.17260242 -0.28418687 -0.19571665
0003f0 61 5e ad be 15 bf 43 bd 93 37 10 3e b9 7f ec 3d
       -0.33861068 -0.047789652 0.140837 0.11547799

mlp.8.bias f4 [16]
000000 f7 b3 7b bb f2 0e b1 3b b2 c5 4f bc 78 0f 18 3c
       -0.0038406828 0.005403393 -0.012681412 0.009281032
000010 ec 74 57 ba 9d f2 64 3b dc 8a 12 3b 13 67 a1 bb
       -0.0008219022 0.0034934648 0.0022360599 -0.0049256175
000020 07 ee 35 bc bf e2 a7 3a 30 e4 39 39 42 e5 92 3b
       -0.011104113 0.0012808664 0.00017727981 0.004482896
000030 cd a6 92 ba 5e 94 3b bb 07 13 9c 3b 75 aa 95 3b
       -0.0011188627 -0.002862237 0.0047630104 0.004567439

mlp.10.weight f4 [16]
000000 8f d5 80 3f 22 6a 7f 3f c7 6c 80 3f f8 3f 7d 3f
       1.0065173 0.9977132 1.0033196 0.98925734
000010 cb 0f 7f 3f 1d 24 80 3f ae 61 80 3f ba b9 7f 3f
       0.99633473 1.0011021 1.002981 0.9989277
000020 51 5b 7f 3f 58 b9 7e 3f 7b 6e 7f 3f a5 50 7f 3f
       0.9974871 0.9950156 0.99777955 0.9973243
000030 5a ec 80 3f d3 d6 7d 3f d2 61 7f 3f d8 17 7d 3f
       1.0072129 0.9915592 0.99758637 0.9886451

mlp.10.bias f4 [16]
000000 fd 4d 8f bc 1a f5 91 bc ba d8 9a 3c 2f ff 94 3c
       -0.017493242 -0.017817069 0.018902171 0.018188087
000010 25 02 9e 3c e3 c5 8f bc 0d 54 94 bc ee f8 99 3c
       0.019288132 -0.017550414 -0.018106485 0.018795457
000020 41 af 96 bc f8 53 9a bc a2 bc 98 3c 80 89 9c bc
       -0.018394114 -0.018838868 0.018644635 -0.019108534
000030 69 e1 90 3c 79 d9 9a bc 02 3e 8e 3c fb 32 98 3c
       0.017685609 -0.018902527 0.017363552 0.018578997

mlp.10.running_mean f4 [16]
000000 ef 9f 0e 3f ce bc d2 3e 6d 21 c3 3e 51 20 13 3f
       0.5571279 0.41159672 0.3811144 0.57471186
000010 c6 66 f0 3e 80 97 f0 3e a6 c7 a8 3e cb 40 09 3f
       0.4695341 0.46990585 0.3296482 0.5361449
000020 46 ce e0 3e 14 c2 07 3f a3 8b f6 3e 9b 29 ee 3e
       0.43907374 0.53030515 0.4815341 0.46516117
000030 a4 5f c6 3e 77 5a ce 3e 05 1e e8 3e 11 de b2 3e
       0.38744843 0.40303394 0.45335403 0.34935048

mlp.10.running_var f4 [16]
000000 e7 51 7d 3f 76 0d 2b 3f d8 ae 11 3f d0 ad 86 3f
       0.989531 0.66817415 0.56907415 1.0521793
000010 4f f2 4a 3f 96 b4 79 3f 9c 7e be 3e 28 e3 29 3f
       0.79275984 0.9754118 0.3720597 0.6636224
000020 5b 0c 1a 3f 04 39 5b 3f 2f 5e 3b 3f a5 95 28 3f
       0.601751 0.85633874 0.7319059 0.6585334
000030 8f dd f4 3e 0c 1c 25 3f f0 88 36 3f 12 4c d9 3e
       0.47825286 0.6449592 0.713027 0.4244085

mlp.12.weight f4 [1, 16]
000000 81 38 e2 be 7d ed 89 bd 14 f0 be 3b d5 0d d3 3e
       -0.44183734 -0.067347504 0.0058269594 0.4122149
000010 ec ba 01 3f 70 e9 f6 be 5c 09 3f be 24 85 cc 3e
       0.50675845 -0.48224974 -0.18655914 0.39945328
000020 fa 07 b6 be ba 1c bd be 6c 48 51 3e 7e 3c 08 bf
       -0.3555296 -0.3693598 0.20437783 -0.53217304
000030 7b e7 9c 3e 93 fd 5c be e1 d5 fe 3e 7d 66 04 3d
       0.30645356 -0.21581106 0.49772552 0.032324303
