backend/ml_models/cf_model.pt (torch, 39991 bytes, 21 tensors)

user_embedding.weight f4 [6, 32]
-0.0032027008 -0.013526477 -0.00024177716 0.01865677 0.0057505257 -0.016448291 -0.005853861 -0.0018738109
-0.0056269546 -0.01778009 0.011913627 -0.008668413 -0.0064856545 -0.0059248423 -0.017049253 -0.004537703
-0.010289229 0.012619522 -0.0016784414 7.22369e-05 -0.0087266965 -0.020031145 -0.0026367155 -0.0029241028
0.014085859 -0.000152726 0.00067986373 -0.020467542 -0.020310698 0.0018574301 0.008343288 -0.025571447
-0.018156236 0.0063547087 -0.030054202 0.0026151992 -0.00707287 0.02642399 0.016750103 -0.0044968827
0.0102878595 -0.0038670953 -0.012977414 0.003148059 0.0011338129 -0.019114533 0.018039761 -0.018184224
0.015824927 -0.008530051 0.009803118 -0.013916708 0.006293676 -0.007089633 -0.021709437 0.010489024
0.0053353924 -0.0022315425 0.011672309 0.004043194 -0.0018375925 0.020582242 0.00737501 -0.042324904
-0.0008477657 0.0062761735 0.018717503 -0.021793379 -0.00071041344 -0.008330161 -0.011787011 0.0029552453
0.02160025 0.0024146948 -0.015656445 0.01157161 0.007875848 0.006247746 0.002537212 -0.0042532273
-0.0056310906 0.0035849568 -0.0074128387 -0.013636351 0.006863469 -0.0029947872 -0.0016877957 0.014826399
0.009670296 0.017446566 -0.0068981983 0.01240372 -0.0032893538 0.006251066 0.0021345317 0.015993632
-0.008704401 -0.00010545243 -0.008778802 -0.01408063 0.0022362391 0.00954264 0.026365036 -0.00030930282
-0.0037430949 -0.008955735 -0.0012658202 -0.0014189901 0.0057389755 -0.01373582 0.011051381 -0.008687913
0.00022450369 -0.008384558 -0.004322301 -0.006474566 -0.0063697337 0.010435916 -0.0028195388 0.003667931
-0.008433688 0.019007174 0.0043721674 0.0012485781 -0.005342156 -0.007349612 0.026798373 0.0015284324
0.010057936 -0.011924567 0.0016838246 0.008128567 -0.0010287012 0.0004554768 -0.028326506 0.015150158
0.001529982 -0.007096926 0.010901712 -0.0044192434 0.012161928 -0.025186697 -0.0012906443 0.010467148
0.00785498 0.011157497 0.01015746 0.0033613567 -0.0048272535 -0.0041542267 0.002836794 0.0027570785
0.023436606 -0.0024250573 -0.003168425 0.0022952093 0.025954455 0.011781358 -0.01689215 0.010691602
0.0050391275 0.005851663 0.00059591356 -0.02102296 -0.0040832153 -0.004019591 -0.009141593 -0.001119429
0.0118789105 -0.0049156123 0.0235835 -0.0051338794 0.008498939 0.0075038327 0.009386838 0.008580891
-0.02622242 -0.008753831 -0.03649997 0.014865198 -0.008371481 0.006422642 0.004495281 0.019957336
-0.007401977 -0.0029152483 0.017791225 0.017731676 -0.015466896 -0.019128727 -0.0016508213 -0.02062902
00000000: 67e4 51bb 289e 5dbc 9085 7db9 15d6 983c
00000010: e86e bc3b 91be 86bc bfd1 bfbb a99a f5ba
00000020: 5162 b8bb 8da7 91bc 6031 433c f605 0ebc
00000030: 9d85 d4bb 2e25 c2bb e0aa 8bbc 03b1 94bb
00000040: 2894 28bc 1dc2 4e3c 26ff dbba e47d 9738
00000050: 6bfa 0ebc 5b18 a4bc bfcc 2cbb 4ea2 3fbb
00000060: 60c8 663c 1325 20b9 e238 323a 8cab a7bc
00000070: 9f62 a6bc 0375 f33a 49b2 083c 367b d1bc
00000080: 63bc 94bc 293b d03b 3b34 f6bc c363 2b3b
00000090: 89c3 e7bb 2077 d83c 8337 893c 965a 93bb
000000a0: 698e 283c 186f 7dbb 389f 54bc aa4f 4e3b
000000b0: 739c 943a 1596 9cbc 1fc8 933c 15f7 94bc
000000c0: 47a3 813c a1c1 0bbc 429d 203c e702 64bc
000000d0: 2e3b ce3b 2750 e8bb fdd7 b1bc 28da 2b3c
000000e0: 84d4 ae3b 123f 12bb 363d 3f3c c57c 843b
000000f0: 5fdb f0ba 179c a83c 11aa f13b e15c 2dbd
00000100: 983c 5eba 5ca8 cd3b 7355 993c 0788 b2bc
00000110: 0a3b 3aba 3a7b 08bc 4f1e 41bc caac 413b
00000120: 02f3 b03c db3f 1e3b f241 80bc da96 3d3c
00000130: b309 013c e4b9 cc3b 5b47 263b a85e 8bbb
00000140: 0385 b8bb 98f1 6a3b 66e7 f2bb 006b 5fbc
00000150: f3e6 e03b 3144 44bb 0739 ddba 6dea 723c
00000160: 2970 1e3c 1aec 8e3c 480a e2bb f938 4b3c
00000170: 3392 57bb bed5 cc3b 80e3 0b3b 1405 833c
00000180: e79c 0ebc 5826 ddb8 f7d4 0fbc 71b2 66bc
00000190: de8d 123b bc58 1c3c 7dfb d73c ec29 a2b9
000001a0: b64e 75bb 13bb 12bc e1e9 a5ba 68fd b9ba
000001b0: 040e bc3b 340c 61bc da10 353c c057 0ebc
000001c0: c068 6b39 635f 09bc 17a2 8dbb 9928 d4bb
000001d0: 33b9 d0bb 67fb 2a3c 03c8 38bb ac61 703b
000001e0: 742d 0abc efb4 9b3c 6644 8f3b 54a7 a33a
000001f0: 410d afbb 04d5 f0bb 4388 db3c ae55 c83a
00000200: 0bca 243c 425f 43bc c7b3 dc3a ae2d 053c
00000210: 7cd5 86ba 10cd ee39 fd0c e8bc 5e38 783c
00000220: ad89 c83a 558d e8bb 189d 323c 4dcf 90bb
00000230: d342 473c 5554 cebc d62a a9ba 677e 2b3c
00000240: 2db2 003c efcd 363c 7a6b 263c 354a 5c3b
00000250: f02d 9ebb 2e20 88bb 81e9 393b 1ab0 343b
00000260: 20fe bf3c b6ed 1ebb 5aa5 4fbb 396b 163b
00000270: 709e d43c 9906 413c 6861 8abc d42b 2f3c
00000280: 441f a53b 4fbf bf3b 1537 1c3a 5838 acbc
00000290: 7ecc 85bb c6b6 83bb 9fc6 15bc ceb9 92ba
000002a0: c39f 423c 2513 a1bb 2f32 c13c 1a3a a8bb
000002b0: 223f 0b3c b6e2 f53b 41cb 193c de96 0c3c
000002c0: 67d0 d6bc 3a6c 0fbc fe80 15bd 298d 733c
000002d0: 8928 09bc 0775 d23b 264d 933b 917d a33c
000002e0: 498c f2bb c00d 3fbb e7be 913c 0542 913c
000002f0: dd68 7dbc d9b3 9cbc 5f60 d8ba 31fe a8bc

item_embedding.weight f4 [10, 32]
0.002223864 0.015934842 0.012641023 0.004053186 -0.010308187 -0.016933858 0.0090226205 -0.0069892583
0.0036337064 0.018173486 0.006556073 0.00079971313 0.006320526 0.022108372 0.0003414135 0.007959428
0.0046911063 0.009248579 0.0021587755 0.006611283 -0.012655326 -0.009742261 -0.02098739 0.016538119
0.008445277 -0.009301297 0.0008486791 -0.0114098955 0.0023045826 -0.014072234 -0.0027496535 -0.009937534
-0.012407702 -0.015516237 0.0011490955 0.014271849 0.014283196 -0.013097168 0.027292145 -0.00595132
-0.0039978526 -0.015515499 -0.0067508304 -0.008949126 -0.003598297 -0.019636555 -9.151807e-05 0.0154610565
-0.0063720862 0.0041097435 -0.01708399 0.0019267289 0.011781744 0.010140205 0.0054547046 -0.006618212
-0.017765863 0.0055263587 0.0080484385 -0.008416445 -0.01546283 0.01597101 0.011674886 0.019856246
0.006514483 0.031816732 0.027119352 0.002716056 -0.0073789023 -0.0149560245 -0.0063605933 -0.019174745
0.01565491 -0.0050788955 -0.012873097 -0.0026885218 -0.0127102425 0.0029738385 -0.0076836646 0.0065154703
-0.022289785 -0.004799675 -0.0055877357 -0.0028492736 0.0024979545 0.008536574 0.0044515356 -0.0032494147
0.008067294 0.0045172 0.0010990829 0.014863262 0.0064136344 -0.01240675 -0.0026985244 -0.016528687
-0.0073143784 -0.0026751452 0.023682471 -0.0045301733 0.01610537 -0.0016958442 0.00697142 -0.00028493255
0.02517562 -0.01780695 0.0076814974 -0.0037422334 -0.0027313454 0.012137094 -0.0031878902 0.015920127
0.009179836 -0.011625024 0.003569894 0.0061943857 -0.018541256 0.006458835 -0.0062992987 -0.016847812
0.009364067 -0.004703195 0.006658985 -0.0025469225 -0.0010369952 0.0089486325 -0.0071587707 -0.016798533
-0.014504886 0.009230886 -0.001723994 -0.0037081488 0.0037048885 0.010279586 0.00088569947 0.008289629
-0.0066029443 -0.012227287 -0.019915817 0.009247833 0.0125346435 -0.009168419 0.0053410805 -0.009754256
0.012292876 -0.008576457 -0.024314487 -0.0109929005 0.014736242 -0.0067286016 0.002037333 0.011888242
-0.019198509 0.0012164457 0.0063661844 0.00071748695 -0.012985128 -0.020242143 -0.013084632 -0.004458056
-0.027752561 0.01217356 0.008615891 0.004734332 -0.026063846 0.003330699 0.002673064 -0.0071764216
-0.0062288363 0.016116444 0.0018406807 0.009766109 0.00050875463 -0.025316507 0.011576152 0.003475543
0.014006984 -0.023278464 0.013493318 -0.0053085634 -0.024054997 -0.015780946 0.009745417 -0.0153786475
-0.0039454475 0.0027252831 -0.011208548 -0.0019120522 -6.0696097e-05 -0.019914314 0.0009651694 0.0013820961
-0.002589777 -0.004164771 0.00839237 0.009702216 -0.0013862932 0.008425511 6.519989e-05 0.007906218
-0.019850783 -0.016238164 0.0020151911 -0.005309938 0.0028613382 0.0056102863 -0.0072733383 0.008872425
-0.008854243 0.015660612 0.009285104 0.01600573 -0.024587348 0.015381506 -0.01096688 -0.0055313515
0.0049141184 0.021361591 0.01457186 0.00152096 -0.009108388 -0.011579259 0.020740896 -0.0049293744
-0.008709319 -0.023235707 0.016089613 -0.00891801 -0.0071791634 -0.0025887683 0.014239108 0.00512426
0.0018006588 -0.02860916 0.012632095 -0.018660096 0.019401478 -0.008531695 -0.00048709204 0.016763821
-0.003985665 -0.002304039 -0.009076309 -0.0047046323 -0.0011911129 0.0034503513 0.00023391191 0.002008035
-0.008169582 -0.012641601 0.002528075 0.0056779934 -0.008823623 0.002815192 0.0030983905 0.0015207474
00000000: 3fbe 113b c989 823c 4b1c 4f3c 97d0 843b
00000010: ace3 28bc e0b8 8abc 9dd3 133c 2606 e5bb
00000020: 7a23 6e3b 90e0 943c 54d4 d63b d7a3 513a
00000030: 6a1c cf3b 9e1c b53c bfff b239 4368 023c
00000040: dab7 993b 5a87 173c 3e7a 0d3b 76a3 d83b
00000050: 4958 4fbc 019e 1fbc bfed abbc f37a 873c
00000060: 0f5e 0a3c 7864 18bc e479 5e3a 92f0 3abc
00000070: 7b08 173b 3a8f 66bc 8833 34bb 0ad1 22bc
00000080: ad49 4bbc d137 7ebc 3f9d 963a 79d4 693c
00000090: 1104 6a3c 8195 56bc c793 df3c 4a03 c3bb
000000a0: 6b00 83bb b834 7ebc 1236 ddbb 5b9f 12bc
000000b0: 68d1 6bbb d7dc a0bc 64ed bfb8 5f50 7d3c
000000c0: efcc d0bb 07ab 863b b9f3 8bbc 4b8a fc3a
000000d0: 3708 413c 1a23 263c 61bd b23b 96dd d8bb
000000e0: b789 91bc 7516 b53b 99dd 033c 21e5 09bc
000000f0: cf57 7dbc a3d5 823c 0548 3f3c 91a9 a23c
00000100: 7277 d53b 4352 023d 6729 de3c dcff 313b
00000110: b8ca f1bb 1d0a 75bc 866c d0bb 5b14 9dbc
00000120: ba3e 803c dd6c a6bb afe9 52bc e931 30bb
00000130: 9f3e 50bc bbe4 423b 40c7 fbbb ba7f d53b
00000140: 1199 b6bc 9846 9dbb 5319 b7bb e1ba 3abb
00000150: b9b4 233b fddc 0b3c 30de 913b 22f4 54bb
00000160: af2c 043c 0505 943b 1a0f 903a 0a85 733c
00000170: 7729 d23b ae45 4bbc bad9 30bb 2b67 87bc
00000180: 74ad efbb 7d51 2fbb be01 c23c d971 94bb
00000190: 69ef 833c 1747 deba 8270 e43b 0063 95b9
000001a0: 1a3d ce3c e1df 91bc 12b5 fb3b 4240 75bb
000001b0: 5f00 33bb a9da 463c eceb 50bb ed6a 823c
000001c0: 0667 163c e276 3ebc e2f4 693b 46fa ca3b
000001d0: d5e3 97bc a3a4 d33b 596a cebb 6c04 8abc
000001e0: be6b 193c 421d 9abb 9d33 da3b 45ea 26bb
000001f0: c9eb 87ba 499d 123c 1f94 eabb 149d 89bc
00000200: e7a5 6dbc 243d 173c a4f7 e1ba 6a04 73bb
00000210: b7cd 723b b56b 283c 492e 683a 39d1 073c
00000220: 835d d8bb f554 48bc 7f26 a3bc 3984 173c
00000230: 1b5e 4d3c 2337 16bc 3b04 af3b 51d0 1fbc
00000240: 0f68 493c 4584 0cbc 2d2f c7bc 911b 34bc
00000250: 4770 713c 9a7b dcbb c784 053b e7c6 423c
00000260: 3146 9dbc 2571 9f3a 6d9b d03b bc15 3c3a
00000270: 93bf 54bc dad2 a5bc ed60 56bc e214 92bb
00000280: 5759 e3bc 9d73 473c ab29 0d3c 7522 9b3b
00000290: d983 d5bc db47 5a3b 922e 2f3b 3028 ebbb
000002a0: 441b ccbb a206 843c ff42 f13a 0802 203c
000002b0: f25d 053a 9064 cfbc e7a9 3d3c f0c5 633b
000002c0: 8d7d 653c 7ab2 bebc 1413 5d3c 75f3 adbb
000002d0: fc0e c5bc 0b47 81bc 3eab 1f3c b9f6 7bbc
000002e0: d048 81bb aa9a 323b 0fa4 37bc d39d faba
000002f0: f093 7eb8 5823 a3bc 6c03 7d3a 7327 b53a
00000300: 40b9 29bb a278 88bb 2780 093c 0bf6 1e3c
00000310: 48b4 b5ba 280b 0a3c edbb 8838 1589 013c
00000320: 1c9e a2bc e605 85bc 4c11 043b fdfe adbb
00000330: 4a85 3b3b 7ed6 b73b 2f55 eebb a65d 113c
00000340: 6311 11bc af4a 803c 8d20 183c 731e 833c
00000350: 686b c9bc b602 7c3c 6eae 33bc 5740 b5bb
00000360: 9d06 a13b 81fe ae3c d0be 6e3c f35a c73a
00000370: 593b 15bc efb6 3dbc d0e8 a93c 9786 a1bb
00000380: 88b1 0ebc cf58 bebc 5dce 833c d81c 12bc
00000390: 303f ebbb 53a8 29bb 264b 693c 69e9 a73b
000003a0: 1504 ec3a c25d eabc d9f6 4e3c 0fdd 98bc
000003b0: d9ef 9e3c 86c8 0bbc 6360 ffb9 4854 893c
000003c0: 2e9a 82bb 5cff 16bb cdb4 14bc 5129 9abb
000003d0: 1e1f 9cba 4a1f 623b 4046 7539 3d99 033b
000003e0: b6d9 05bc b81e 4fbc 0fae 253b 760e ba3b
000003f0: f590 10bc 167f 383b 5e0e 4b3b d153 c73a

mlp.0.weight f4 [64, 64]
0.09296156 -0.03476612 0.13900848 -0.09867843 -0.19573885 -0.050682027 0.019275052 -0.068930425
0.103514776 0.07568444 -0.07203624 0.15097399 -0.115039535 0.20532268 0.20406704 0.11382506
-0.12523784 0.16311805 0.14315893 0.13216053 0.1533333 0.06527364 -0.21385923 -0.038305245
0.05536993 0.028198872 -0.026685948 0.22083732 -0.06746151 0.15723157 -0.0034411694 -0.046809323
-0.12876344 0.17176163 -0.039594874 0.16519722 0.10942243 0.13641216 -0.021580908 -0.1878127
-0.03089267 0.06311245 -0.07104006 -0.118553385 0.16743802 -0.06884694 0.060354877 0.098371714
-0.19315368 -0.15887147 0.050670173 -0.02929849 -0.2010622 -0.12735009 -0.008322922 -0.13793434
-0.017630221 0.15970989 0.21692921 0.094231114 0.022228658 0.0402416 -0.11882813 0.08206322
0.028423611 -0.1306388 -0.16013455 -0.12575234 -0.042585984 0.15054232 0.19331504 0.103838466
0.058692932 -0.17863747 0.015971405 0.08706341 -0.0043152943 0.20774628 0.15912107 0.08523025
-0.060770918 -0.19067457 0.17717256 0.1383975 -0.19486448 0.09842376 -0.17052463 0.15996212
-0.123561695 0.19994308 -0.011349641 -0.11145086 0.007475481 0.18470958 0.10749667 0.07596087
-0.10356293 0.072566755 0.16958101 0.000227848 -0.1324661 0.21162564 0.034897286 0.18571742
0.10321467 -0.15443613 0.18601935 -0.20011762 0.05933424 -0.09929986 0.19634733 -0.10081976
-0.008078873 0.0008858205 0.097731374 0.061815284 0.026866093 0.1058544 0.03169743 -0.16488712
0.056621112 -0.10051807 0.14318019 -0.06389172 0.12521824 -0.05112032 0.062119048 0.13579746
0.0021437393 0.11304179 0.09170636 0.05189936 -0.17925371 -0.21137384 0.028584113 0.09247624
-0.19539906 -0.052820332 0.20745039 -0.092679635 0.13068822 -0.1443463 -0.20547973 0.18078616
0.028511263 0.01722523 0.018295325 -0.10541562 0.124991566 -0.0944611 0.1454448 0.09626858
-0.11003158 0.032056663 -0.14001499 -0.0074388827 -0.21195725 -0.10204086 0.09744374 0.0917948
-0.17285097 -0.023155393 -0.0011868703 0.07348679 0.17008862 -0.10988634 -0.09942738 0.20861992
-0.14654748 0.1102737 0.031194575 -0.062785305 -0.063993864 -0.20851676 -0.054241195 -0.19917203
0.16565488 -0.11898747 -0.0526563 -0.19154923 0.113440156 -0.021971842 -0.096195154 0.035581555
0.03289879 -0.15175809 0.19556473 -0.18368314 0.13081114 0.12185792 -0.015224708 -0.031914506
-0.15172797 0.024215844 0.066894755 0.11941809 -0.092729904 -0.11196806 -0.10505941 0.16487865
-0.13831882 0.15269701 -0.12645571 0.1206944 0.015675496 -0.050708424 -0.16381718 -0.10270808
-0.2153277 0.045762043 -0.046271604 0.16557643 -0.103876546 -0.13753945 0.18611346 -0.156237
-0.16174144 -0.024495916 0.011624602 0.013590867 -0.048584238 0.14005367 -0.110090666 -0.19144633
-0.00791784 -0.076085955 0.15321358 -0.04287927 0.055364385 0.12721391 0.21110521 0.04713358
0.21041332 -0.08292566 -0.06330696 0.03220422 0.11740385 -0.16562396 0.035804655 0.017317122
-0.07491257 -0.097961985 0.048384473 0.083387256 0.1549357 0.024263497 0.12747656 -0.11009073
-0.04787915 0.07053106 0.03537083 -0.15168072 0.14018801 0.12306272 0.08287372 -0.13990098
00000000: a162 be3d eb66 0ebd 3d58 0e3e eb17 cabd
00000010: c46f 48be f597 4fbd b7e6 9d3c 652b 8dbd
00000020: 8eff d33d 7200 9b3d bc87 93bd ed98 1a3e
00000030: d999 ebbd 1c40 523e f3f6 503e 1d1d e93d
00000040: 593e 00be 6b08 273e 4198 123e 1755 073e
00000050: 6803 1d3e 30ae 853d eafd 5abe f6e5 1cbd
00000060: 94cb 623d 5201 e73c 7d9c dabc 2e23 623e
00000070: 4329 8abd 5001 213e 3e85 61bb 22bb 3fbd
00000080: 90da 03be 48e2 2f3e 3c2e 22bd 7629 293e
00000090: de18 e03d a1af 0b3e 72ca b0bc f951 40be
000000a0: a012 fdbc 1a41 813d 737d 91bd 1ecc f2bd
000000b0: df74 2b3e a0ff 8cbd ad36 773d 1c77 c93d
000000c0: 14ca 45be 34af 22be 878b 4f3d 6303 f0bc
000000d0: 40e3 4dbe 1068 02be dd5c 08bc a93e 0dbe
000000e0: 416d 90bc fd8a 233e b122 5e3e 3efc c03d
000000f0: e018 b63c 60d4 243d 2a5c f3bd c310 a83d
00000100: a2d8 e83c 2dc6 05be 50fa 23be 39c5 00be
00000110: a46e 2ebd c427 1a3e 61f4 453e 43a9 d43d
00000120: 0068 703d beec 36be 77d6 823c 4d4e b23d
00000130: 5067 8dbb 71bb 543e a2f0 223e 338d ae3d
00000140: edea 78bd 3240 43be b96c 353e 13b8 0d3e
00000150: 8e8a 47be 6592 c93d 029e 2ebe 1ccd 233e
00000160: ea0d fdbd e1bd 4c3e d8f3 39bc 5940 e4bd
00000170: e1f4 f43b 8224 3d3e 3727 dc3d 5f91 9b3d
00000180: cd18 d4bd e19d 943d a5a6 2d3e 7bea 6e39
00000190: 31a5 07be 64b4 583e 75f0 0e3d b52c 3e3e
000001a0: 3762 d33d 8124 1ebe db7b 3e3e a2eb 4cbe
000001b0: 7608 733d ba5d cbbd 460f 493e 977a cebd
000001c0: 405d 04bc 6836 683a 6327 c83d 0632 7d3d
000001d0: 4816 dc3c 31ca d83d 2ad5 013d 2bd8 28be
000001e0: 8aeb 673d 6bdc cdbd d49d 123e a9d9 82bd
000001f0: 3639 003e 8a63 51bd 8b70 7e3d 7d0e 0b3e
00000200: fa7d 0c3b 7482 e73d 8bd0 bb3d 6c94 543d
00000210: 498e 37be 6272 58be 3b29 ea3c 2f64 bd3d
00000220: b116 48be 225a 58bd e06d 543e d2ce bdbd
00000230: 22d3 053e 84cf 13be 4769 52be 0220 393e
00000240: 7490 e93c ed1b 8d3c 14e0 953c 25e4 d7bd
00000250: 94fb ff3d d274 c1bd 7bef 143e 7628 c53d
00000260: 3d58 e1bd d94d 033d 1760 0fbe dfc1 f3bb
00000270: 520b 59be ccfa d0bd 9590 c73d e9fe bb3d
00000280: d8ff 30be 61b0 bdbc c290 9bba 3e80 963d
00000290: b62b 2e3e 170c e1bd 95a0 cbbd 76a0 553e
000002a0: 8b10 16be 2dd7 e13d c48b ff3c 9595 80bd
000002b0: 370f 83bd 6b85 55be 042c 5ebd c1f3 4bbe
000002c0: 6fa1 293e b4af f3bd 22ae 57bd 7b25 44be
000002d0: 5053 e83d 4bfe b3bc f701 c5bd f7bd 113d
000002e0: e2c0 063d 7966 1bbe 1f42 483e 6f17 3cbe
000002f0: 5bf3 053e a590 f93d 0e71 79bc c9b8 02bd
00000300: 945e 1bbe 4e60 c63c 1e00 893d 7991 f43d
00000310: 2de9 bdbd 834f e5bd 6329 d7bd f3d5 283e
00000320: 73a3 0dbe 9b5c 1c3e 9b7d 01be a02e f73d
00000330: e669 803c a3b3 4fbd b1bf 27be 9d58 d2bd
00000340: dd7e 5cbe fb70 3b3d 4b87 3dbd de8c 293e
00000350: 3abd d4bd 24d7 0cbe 8794 3e3e 98fc 1fbe
00000360: 8c9f 25be a9ab c8bc 1d75 3e3c 3aac 5e3c
00000370: 4400 47bd 3b6a 0f3e 3777 e1bd 820a 44be
00000380: d4b9 01bc f4d2 9bbd 05e4 1c3e 2ca2 2fbd
00000390: c4c5 623d 5d44 023e f72b 583e 240f 413d
000003a0: 9776 573e eed4 a9bd 14a7 81bd 92e8 033d
000003b0: 6e71 f03d 5499 29be e7a7 123d a3dc 8d3c
000003c0: c36b 99bd 4ba0 c8bd cc2e 463d f0c6 aa3d
000003d0: 77a7 1e3e 3ec4 c63c 3789 023e 4077 e1bd
000003e0: ed1c 44bd 9772 903d 01e1 103d 3152 1bbe
000003f0: 728d 0f3e 4f08 fc3d b2b9 a93d 3442 0fbe

mlp.0.bias f4 [64]
0.0058919317 0.011830486 -0.003999397 -0.005067298 0.0014724727 -0.0011256705 -0.0021182636 0.0010628122
0.0031943154 -0.003943487 0.0029871347 0.00535587 -0.006817544 -0.0059388764 0.0055857142 0.00075627415
-0.0064409673 -0.0106071355 0.006430898 -0.008336405 0.0003941384 -0.0066229007 -0.005484832 -0.002475282
-0.005788405 -0.004590622 0.0019436413 -0.0029568805 -0.0038866503 0.0028179856 -0.0009427369 0.007461915
0.0030278289 0.005827839 -0.0051971073 -0.0042982167 -0.0048049134 -0.0029981378 -0.00059321744 0.003753684
-0.005305801 8.539372e-05 0.0020706605 -0.0096649695 -0.003559536 0.0037956473 -0.0071380697 -0.0041344166
0.0055587525 -0.0035028611 -0.0040153014 -0.005207628 -0.0004594912 -0.0036092373 0.0031299363 -0.0010842666
0.00011893296 0.00045775014 -0.0054307655 0.00055850646 0.0009940006 -0.0035332134 0.001899321 0.0059615714
00000000: 1b11 c13b a8d4 413c 600d 83bb 940b a6bb
00000010: fcff c03a 3c8b 93ba 91d2 0abb 0f4e 8b3a
00000020: b857 513b 5e38 81bb cec3 433b 4b80 af3b
00000030: b465 dfbb e89a c2bb 5e08 b73b b340 463a
00000040: c00e d3bb 8dc9 2dbc 48ba d23b 6b95 08bc
00000050: 5ca4 ce39 eb04 d9bb 1bba b3bb 5738 22bb
00000060: a9ac bdbb ee6c 96bb c8c1 fe3a 39c8 41bb
00000070: 2cb7 7ebb f4ad 383b 0122 77ba 1483 f43b
00000080: 8a6e 463b 75f7 be3b 7f4c aabb 0ed8 8cbb
00000090: 8972 9dbb 687c 44bb 2682 1bba 5e00 763b
000000a0: 49dc adbb 6815 b338 ebb3 073b d259 1ebc
000000b0: 1b47 69bb 65c0 783b 78e6 e9bb 007a 87bb
000000c0: 3226 b63b 4290 65bb ca92 83bb c0a4 aabb
000000d0: dde7 f0b9 f488 6cbb 9e1f 4d3b f31d 8eba
000000e0: a66b f938 2ffe ef39 90f4 b1bb bc68 123a
000000f0: 2049 823a 7c8d 67bb a3f2 f83a 4959 c33b

mlp.2.weight f4 [64]
1.0062501 0.9939584 0.9907138 0.99981165 0.9997678 1.0032398 0.9937602 1.003823
0.99806434 1.0092583 0.9978277 0.99699396 0.99616975 0.9941359 1.0122029 0.99946356
1.0050112 0.99057394 0.9922623 0.9949902 0.9938965 1.0022122 0.99975127 1.0065029
1.0009176 1.0062643 0.9952558 0.99348205 0.9995768 1.0022764 1.0037068 0.99688756
1.0003903 0.9879436 1.005333 0.994279 1.0141326 1.0079645 1.0060459 0.99941015
0.9918636 1.0143406 1.0006982 0.9919315 0.9936892 1.0080512 1.0020442 0.9911736
1.0070707 1.0055213 1.0009906 1.0076894 1.0068501 0.99478644 0.98878807 0.9983488
0.99760556 1.0039049 1.0054266 1.0043855 0.99451256 1.0004091 0.9993033 0.99999595
00000000: cecc 803f 0f74 7e3f 6b9f 7d3f a8f3 7f3f
00000010: c8f0 7f3f 296a 803f 1267 7e3f 467d 803f
00000020: 2581 7f3f 602f 813f a371 7f3f ff3a 7f3f
00000030: fb04 7f3f b17f 7e3f dd8f 813f d8dc 7f3f
00000040: 35a4 803f 4196 7d3f e704 7e3f aeb7 7e3f
00000050: 0070 7e3f 7d48 803f b3ef 7f3f 16d5 803f
00000060: 111e 803f 45cd 803f 16c9 7e3f d754 7e3f
00000070: 44e4 7f3f 984a 803f 7779 803f 0634 7f3f
00000080: ca0c 803f dfe9 7c3f c0ae 803f 1289 7e3f
00000090: 19cf 813f fb04 813f 1dc6 803f 58d9 7f3f
000000a0: c6ea 7d3f ead5 813f e116 803f 39ef 7d3f
000000b0: 6a62 7e3f d207 813f fc42 803f 8ebd 7d3f
000000c0: b1e7 803f ecb4 803f 7620 803f f7fb 803f
000000d0: 77e0 803f 53aa 7e3f 3721 7d3f c993 7f3f
000000e0: 1463 7f3f f57f 803f d2b1 803f b48f 803f
000000f0: 6098 7e3f 680d 803f 57d2 7f3f bcff 7f3f

mlp.2.bias f4 [64]
0.0025804816 -0.0055362647 0.012348925 0.0042816503 0.0033236549 -0.005125629 0.0012395272 -0.00012380206
-0.0047329506 -0.009738884 0.002597012 -0.0048053833 -0.0015095025 -0.0068529933 0.001988882 -0.00020457772
-0.0012053384 -0.002837888 0.009952312 -0.0056567118 -0.003516538 0.009006792 0.011713689 -0.00014751608
0.0116791045 0.0028166808 0.008377554 0.002588106 -0.0030959486 -0.005446636 -0.0056436947 -0.0022007634
-0.004378226 0.0021016477 0.0072408137 -0.006364093 -0.0006980225 0.0072454945 -0.0033899657 0.0027898564
-0.01079772 0.004063447 0.0027702465 0.00956204 -0.0120691415 -0.0055977693 0.0057707825 -0.0005984489
-0.005692736 0.009823894 0.003588271 -0.010003806 -0.0061795823 0.009403332 0.011534499 -0.0018121968
-0.00053192023 -0.0025200867 0.0025845133 -0.00068096997 0.0066710124 -0.00072744134 -0.010989274 0.0024653743
00000000: 4c1d 293b 8e69 b5bb 2553 4a3c 164d 8c3b
00000010: add1 593b e4f4 a7bb a277 a23a ddd0 01b9
00000020: de16 9bbb d78f 1fbc a232 2a3b 7a76 9dbb
00000030: 80da c5ba 138f e0bb e757 023b ea83 56b9
00000040: 72fc 9dba dcfb 39bb 060f 233c f05b b9bb
00000050: b875 66bb 3991 133c c6ea 3f3c 8cae 1ab9
00000060: b759 3f3c 1098 383b 0242 093c 379d 293b
00000070: 66e5 4abb b279 b2bb beee b8bb af3a 10bb
00000080: 3977 8fbb ccbb 093b 5944 ed3b e289 d0bb
00000090: 7ffb 36ba 9d6b ed3b 302a 5ebb 06d6 363b
000000a0: ece8 30bc aa26 853b 068d 353b 1aaa 1c3c
000000b0: a6bd 45bc 7e6d b7bb d518 bd3b 3ae1 1cba
000000c0: 218a babb 66f4 203c 3329 6b3b 01e7 23bc
000000d0: 187e cabb 6f10 1a3c 32fb 3c3c 3c87 edba
000000e0: 9070 0bba 0a28 25bb f060 293b 1f83 32ba
000000f0: 8298 da3b c3b1 3eba 5b0c 34bc 1e92 213b

mlp.2.running_mean f4 [64]
0.0062155863 0.013715177 0.002308978 0.0020988006 0.003953158 0.0037142278 0.003945646 0.0034441957
0.0110604875 0.0017332934 0.002430322 0.00967063 0.0005774801 0.000918146 0.0040565417 0.007952372
0.0026008205 0.00010591778 0.0070715975 0.0030270806 0.0015272882 0.00179708 0.0026973165 0.00229607
0.0014155041 0.004606933 0.0038998842 0.004837672 0.0032861906 0.0063822423 0.0059243003 0.008409927
0.004126374 0.009100613 0.00249402 0.002976353 0.0017040013 0.0036280993 0.0008111373 0.005833758
0.0036224474 0.0037195366 0.0050269477 0.000496479 0.00194227 0.0052525057 0.0011949623 0.0020283984
0.008995565 0.0055183033 0.002456591 0.0017983186 0.0040801778 0.002639058 0.006033364 0.0037518572
0.0031982597 0.003904015 0.0015034197 0.0024930998 0.0062011112 0.0066613704 0.004411517 0.008932893
00000000: 1eac cb3b 9fb5 603c 3952 173b 088c 093b
00000010: 7e89 813b 676a 733b 7a4a 813b 04b8 613b
00000020: 0c37 353c ad2f e33a 0a46 1f3b 9071 1e3c
00000030: 0962 173a bcaf 703a bdec 843b aa4a 023c
00000040: 8772 2a3b 2d20 de38 dcb8 e73b fc61 463b
00000050: 4a2f c83a 008c eb3a 76c5 303b aa79 163b
00000060: 7088 b93a c1f5 963b 3395 7f3b 5685 9e3b
00000070: 215d 573b 2122 d13b a220 c23b cac9 093c
00000080: 8936 873b bd1a 153c b672 233b eb0e 433b
00000090: cc58 df3a 68c5 6d3b 81a2 543a 1c29 bf3b
000000a0: 9566 6d3b 78c3 733b 18b9 a43b 2426 023a
000000b0: c493 fe3a 361d ac3b 48a0 9c3a e1ee 043b
000000c0: 2262 133c e2d2 b43b c2fe 203b 8fb5 eb3a
000000d0: 03b3 853b 0cf4 2c3b 87b3 c53b b8e1 753b
000000e0: e599 513b 81da 7f3b 650e c53a 4663 233b
000000f0: b132 cb3b a047 da3b 7d8e 903b 455b 123c

mlp.2.running_var f4 [64]
0.12162651 0.12169058 0.12159955 0.12159272 0.1216241 0.121596746 0.121619254 0.1216023
0.121670805 0.12159131 0.12159159 0.12171777 0.12158074 0.12158398 0.12163316 0.12165084
0.121610686 0.12157703 0.12163697 0.12161509 0.12158824 0.12159139 0.12160029 0.121596724
0.121594146 0.12160565 0.12161289 0.121608526 0.121607974 0.12165194 0.12165036 0.12162709
0.12161232 0.12165084 0.121603236 0.12160833 0.121595055 0.12161816 0.1215824 0.12160565
0.12161103 0.12164404 0.12163151 0.12158112 0.121593356 0.12162237 0.12158812 0.12159116
0.121628664 0.12160916 0.12159591 0.12159872 0.121610634 0.12159296 0.1216354 0.12160279
0.121602 0.12161785 0.12159666 0.121599704 0.12162353 0.121631116 0.121606916 0.12163146
00000000: 5217 f93d e938 f93d 2f09 f93d 9b05 f93d
00000010: 0e16 f93d b707 f93d 8413 f93d a00a f93d
00000020: 8b2e f93d dd04 f93d 0305 f93d 2b47 f93d
00000030: 53ff f83d 0601 f93d ce1a f93d 1324 f93d
00000040: 060f f93d 61fd f83d ce1c f93d 5511 f93d
00000050: 4103 f93d e804 f93d 9309 f93d b407 f93d
00000060: 5a06 f93d 620c f93d 2e10 f93d e40d f93d
00000070: 9a0d f93d a724 f93d d323 f93d a017 f93d
00000080: e10f f93d 1324 f93d 1e0b f93d ca0d f93d
00000090: d406 f93d f112 f93d 3100 f93d 620c f93d
000000a0: 340f f93d 8320 f93d f119 f93d 86ff f83d
000000b0: f005 f93d 2615 f93d 3103 f93d c904 f93d
000000c0: 7318 f93d 390e f93d 4707 f93d c008 f93d
000000d0: ff0e f93d bb05 f93d fb1b f93d e20a f93d
000000e0: 780a f93d c812 f93d ab07 f93d 4409 f93d
000000f0: c215 f93d bc19 f93d 0c0d f93d ea19 f93d

mlp.4.weight f4 [32, 64]
0.22484756 0.18545833 0.17427137 -0.10617249 -0.04907913 0.21692856 -0.007611388 0.052213058
-0.09250477 -0.12312873 -0.10712288 -0.10005176 -0.0024731916 -0.2522326 0.09258129 0.08829353
0.10978139 -0.19261716 0.15532082 -0.1122122 -0.10664321 0.032845184 -0.04407305 0.04596161
0.14829539 0.13104796 0.19965169 -0.21297102 -0.008236151 0.19401513 -0.21037503 0.0029594635
-0.24330792 0.15825084 -0.17412141 -0.13875614 -0.16230685 -0.22047052 0.08540565 -0.15228534
0.03356948 -0.23607427 -0.12981023 -0.23189461 0.14221649 -0.15929428 -0.20896329 -0.16118018
0.091447815 -0.11928796 0.21209832 0.17828898 -0.02697248 0.103719726 -0.08669873 0.049111784
-0.23848096 -0.19495209 0.13013507 0.19523361 -0.2051267 -0.21246855 0.05922727 0.24910492
0.18984914 -0.15167361 -0.15473765 0.08574852 -0.049693894 0.109493464 0.06483491 0.16979963
-0.15923376 0.20252296 -0.10678878 0.22760564 -0.14203782 -0.028277975 0.08613916 0.12222604
-0.11037992 -0.13047205 0.11859745 0.032624323 -0.035848808 -0.13417491 -0.051703185 -0.13847105
-0.21661067 0.23753105 0.106456846 0.067351386 -0.11477516 -0.19328474 0.16686791 0.015268475
-0.0492184 -0.058547158 -0.20977594 -0.09073508 -0.20568155 0.19316715 -0.15980375 0.17282201
0.11572844 -0.026844194 -0.0060892054 0.12274119 0.14286795 0.24854954 0.23010466 -0.17992507
0.16354865 -0.12262437 -0.19613633 0.18486567 -0.18056017 -0.22491506 0.11884879 -0.04080242
-0.047704384 0.08126632 -0.20461763 0.025708081 0.1684724 -0.00312489 -0.24701568 -0.11617974
-0.0777943 0.051130157 -0.16348094 -0.20873648 -0.16621682 -0.044891406 -0.09327625 0.17899196
-0.06396211 0.21887927 0.112227306 0.10755604 -0.22948226 -0.0815399 -0.21895051 0.1757888
0.11476091 -0.2329686 0.06908704 0.117136784 0.03607885 -0.049910977 0.12035614 0.12665087
-0.24164057 -0.014862369 -0.03490985 -0.086938135 -0.21524088 0.12876025 0.08244329 0.17959972
-0.032328747 -0.09499184 0.093376115 -0.063676916 0.1584523 0.10257807 0.010316136 -0.23837483
0.1692461 -0.24045469 0.017170025 -0.18624182 -0.044115018 0.19810091 -0.08366655 0.2072843
0.13009866 0.100724466 0.21966995 0.21548933 0.18777311 -0.075090885 0.22113305 -0.11919657
0.20630753 0.14708501 -0.047176342 0.09936457 -0.00470816 -0.090832375 0.14516748 -0.110014945
-0.24982148 -0.18762434 0.14337659 -0.015606977 -0.033723384 0.12450542 -0.17715818 -0.16703822
-0.20381656 0.0996012 -0.23620749 -0.16338474 0.10992516 0.08116229 0.07166038 0.1460199
0.21220891 -0.17978834 0.12946199 -0.118979916 0.07872543 -0.009433034 0.117618605 0.18422075
-0.052411735 -0.052150555 0.17579319 0.09499834 0.120834716 0.08861225 -0.13205548 0.13842463
0.02390746 -0.009052396 0.04294996 0.03997637 -0.054229494 0.012747264 0.13216084 -0.03129193
0.105284505 -0.23041083 0.15510443 -0.19429968 -0.055845913 0.023570308 -0.15065284 -0.11803933
0.16067848 0.069527134 0.0020014683 -0.15039848 -0.19212207 -0.07046221 0.18561669 -0.20083496
-0.22896619 -0.23195255 -0.08446197 -0.05167442 0.15786518 0.053751215 0.047352724 0.19047108
00000000: 703e 663e cae8 3d3e 3274 323e f670 d9bd
00000010: 3307 49bd 8522 5e3e f368 f9bb 5cdd 553d
00000020: 2473 bdbd ea2a fcbd 3e63 dbbd f0e7 ccbd
00000030: 4515 22bb a224 81be 429b bd3d 3dd3 b43d
00000040: 11d5 e03d 6f3d 45be 6c0c 1f3e 83cf e5bd
00000050: c167 dabd ac88 063d f185 34bd 3e42 3c3d
00000060: bfda 173e 7031 063e 7e71 4c3e 1315 5abe
00000070: ecf0 06bc e7ab 463e 8d6c 57be 8ff3 413b
00000080: b625 79be 820c 223e e24c 32be 1716 0ebe
00000090: c433 26be 06c3 61be 28e9 ae3d b0f0 1bbe
000000a0: 2780 093d 74bd 71be f9ec 04be c875 6dbe
000000b0: 33a1 113e 0a1e 23be 79fa 55be 6b0c 25be
000000c0: fe48 bb3d 3f4d f4bd 4d30 593e 6391 363e
000000d0: 64f5 dcbc 026b d43d 1b8f b1bd 7029 493d
000000e0: 5a34 74be 85a1 47be 2142 053e 52eb 473e
000000f0: bc0c 52be 5b91 59be 4b98 723d 5c15 7f3e
00000100: d067 423e 5450 1bbe 8c73 1ebe ec9c af3d
00000110: d38b 4bbd 1c3e e03d 2ac8 843d f4df 2d3e
00000120: 2d0e 23be 2e62 4f3e 13b4 dabd 7411 693e
00000130: 5d72 11be 36a7 e7bc ba69 b03d a551 fa3d
00000140: de0e e2bd 779a 05be 38e3 f23d 15a1 053d
00000150: 33d6 12bd 2665 09be b8c6 53bd 5bcb 0dbe
00000160: 30cf 5dbe 573b 733e 0c06 da3d 86ef 893d
00000170: 3d0f ebbd 6fec 45be 6cdf 2a3e a028 7a3c
00000180: 3c99 49bd 25cf 6fbd 81cf 56be 50d3 b9bd
00000190: 2f9e 52be 9ccd 453e 98a3 23be 41f8 303e
000001a0: 0803 ed3d 5be8 dbbc f587 c7bb bc5f fb3d
000001b0: fa4b 123e c583 7e3e 8ea0 6b3e 473e 38be
000001c0: 4c79 273e 7c22 fbbd f6d7 48be 6d4d 3d3e
000001d0: c4e4 38be 2250 66be ff66 f33d 7020 27bd
000001e0: ac65 43bd f56e a63d 4987 51be c199 d23c
000001f0: 0784 2c3e f4ca 4cbb aef1 7cbe a5ef edbd
00000200: 9e52 9fbd db6d 513d 8c67 27be 04bf 55be
00000210: be34 2abe 0de0 37bd 9e07 bfbd ab49 373e
00000220: 91fe 82bd e321 603e 6ed7 e53d 5746 dc3d
00000230: 66fd 6abe 64fe a6bd 9034 60be fb01 343e
00000240: c507 eb3d 528f 6ebe 827d 8d3d 69e5 ef3d
00000250: 6bc7 133d 746f 4cbd 487d f63d c4b0 013e
00000260: a070 77be 4b81 73bc a2fd 0ebd 9f0c b2bd
00000270: 1b68 5cbe bad9 033e 07d8 a83d fde8 373e
00000280: 266b 04bd 158b c2bd fa3b bf3d 0b69 82bd
00000290: 5241 223e 7314 d23d 0305 293c 8818 74be
000002a0: da4e 2d3e c139 76be 27a8 8c3c 2db6 3ebe
000002b0: f3b1 34bd f7da 4a3e 5e59 abbd 5642 543e
000002c0: 9538 053e a148 ce3d 29f1 603e 3ca9 5c3e
000002d0: 9847 403e 40c9 99bd b470 623e 551d f4bd
000002e0: 4842 533e 749d 163e fb3b 41bd a77f cb3d
000002f0: e946 9abb 5306 babd c9a6 143e 844f e1bd
00000300: 34d1 7fbe 9820 40be 50d1 123e 68b4 7fbc
00000310: 8821 0abd b3fc fe3d f468 35be 110c 2bbe
00000320: 4ab5 50be b7fb cb3d 60e0 71be 544e 27be
00000330: 7120 e13d 6a38 a63d adc2 923d 3e86 153e
00000340: 4b4d 593e 6f1a 38be af91 043e beab f3bd
00000350: cc3a a13d 038d 1abc 06e2 f03d 5da4 3c3e
00000360: b0ad 56bd d29b 55bd 2103 343e 7d8e c23d
00000370: 3178 f73d 577a b53d 8d39 07be 30bf 0d3e
00000380: 94d9 c33c 8050 14bc 4cec 2f3d 43be 233d
00000390: bf1f 5ebd e6d9 503c 2c55 073e f72b 00bd
000003a0: 679f d73d d1f0 6bbe b2d3 1e3e 7ff6 46be
000003b0: afbe 64bd 8516 c13c bd44 1abe 9bbe f1bd
000003c0: e688 243e 3e64 8e3d 112b 033b 0f02 1abe
000003d0: a6bb 44be 7e4e 90bd 4d12 3e3e aea7 4dbe
000003e0: 1d76 6abe f884 6dbe 66fa acbd 8ea8 53bd
000003f0: 69a7 213e 3c2a 5c3d eef4 413d da0a 433e

mlp.4.bias f4 [32]
-0.009906133 -0.006618928 -0.0018275742 0.008628022 -0.008310602 -6.632763e-08 -0.013628779 -0.0051559946
0.0048674177 -0.0010092946 0.0008965269 -0.009964701 0.009238005 -0.0025955504 0.009130454 0.007479043
0.009084443 -0.0027608478 0.0045414525 -0.0036921296 0.0037821345 -0.0076515237 0.0066045993 -2.3139713e-05
0.00014347964 -0.0027595116 -0.00016824272 0.0019618687 -0.009402012 -0.0106682265 -0.0028528252 -0.017668853
00000000: 554d 22bc 98e3 d8bb 378b efba 8c5c 0d3c
00000010: 3129 08bc 0070 8eb3 3e4b 5fbc 9ef3 a8bb
00000020: dc7e 9f3b 4f4a 84ba e704 6b3a fc42 23bc
00000030: 005b 173c 1c1a 2abb e697 153c c312 f53b
00000040: ead6 143c 57ef 34bb 77d0 943b a8f7 71bb
00000050: b0dd 773b a2b9 fabb 656b d83b 281c c2b7
00000060: 0673 1639 ecd8 34bb 506a 30b9 b292 003b
00000070: e60a 1abc c9c9 2ebc 77f6 3abb 45be 90bc

mlp.6.weight f4 [32]
1.004176 0.9931396 0.9978975 1.0111667 1.0021086 0.9922455 0.9965003 1.0015616
1.0084698 0.9924479 1.0008984 1.0089526 0.9919464 0.996748 0.9979762 0.9997921
1.0112507 1.0003754 1.0050173 1.0023259 0.98759156 0.9951469 1.015002 1.0057073
0.9878233 0.99096525 0.9976329 0.99051917 1.0011346 0.99461377 1.0034895 1.0068964
00000000: d788 803f 663e 7e3f 3676 7f3f e96d 813f
00000010: 1845 803f cd03 7e3f a51a 7f3f 2c33 803f
00000020: 8a15 813f 1111 7e3f 701d 803f 5c25 813f
00000030: 33f0 7d3f e02a 7f3f 5e7b 7f3f 60f2 7f3f
00000040: aa70 813f 4d0c 803f 68a4 803f 374c 803f
00000050: cdd2 7c3f f2c1 7e3f 96eb 813f 04bb 803f
00000060: fde1 7c3f e6af 7d3f df64 7f3f aa92 7d3f
00000070: 2e25 803f 029f 7e3f 5872 803f fbe1 803f

mlp.6.bias f4 [32]
-0.0030080508 -0.009005702 -0.0063112807 0.0028389231 -0.0064536883 -0.003706761 -0.011235462 -0.008698813
-0.00093212747 -0.004641165 -0.008951725 -0.0073868926 -0.006043627 -0.0015929751 0.01043425 -0.0056419014
0.0015850392 0.007030864 0.005240398 0.00035641613 0.004997998 0.0034069452 -0.00034356647 0.006344977
-0.0025511126 0.0030940473 0.008877358 0.00978837 -0.0013047998 0.0004335814 -0.0013326575 -0.0035545847
00000000: b822 45bb a78c 13bc dcce cebb 3a0d 3a3b
00000010: 7679 d3bb 21ed 72bb f114 38bc 7785 0ebc
00000020: 045a 74ba ea14 98bb 42aa 12bc bf0d f2bb
00000030: 9e09 c6bb 60cb d0ba 6bf4 2a3c b3df b8bb
00000040: 17c1 cf3a 2963 e63b a5b7 ab3b 5ddd ba39
00000050: 3fc6 a33b 0e47 5f3b b620 b4b9 86e9 cf3b
00000060: 9130 27bb 80c5 4a3b 5772 113c 665f 203c
00000070: d105 abba 4f52 e339 91ac aeba 09f4 68bb

mlp.6.running_mean f4 [32]
0.48482698 0.38868284 0.42156443 0.41620287 0.34009597 0.43120572 0.35490057 0.52230364
0.4239496 0.34367377 0.31765077 0.41091013 0.43240446 0.4344069 0.52569443 0.41790053
0.39667267 0.45017385 0.47012165 0.49324474 0.45583844 0.4509759 0.43756393 0.38715583
0.38340455 0.4497765 0.40587988 0.39098075 0.42632097 0.32078227 0.4021355 0.37232372
00000000: 3e3b f83e 7001 c73e 4bd7 d73e 8b18 d53e
00000010: 0f21 ae3e ffc6 dc3e 87b5 b53e b1b5 053f
00000020: ec0f d93e 02f6 af3e 1fa3 a23e d062 d23e
00000030: 1e64 dd3e 956a de3e e993 063f 0ff7 d53e
00000040: ae18 cb3e 307d e63e c9b3 f03e 938a fc3e
00000050: a863 e93e 50e6 e63e 6108 e03e 4a39 c63e
00000060: 9a4d c43e 1b49 e63e 7dcf cf3e a12e c83e
00000070: be46 da3e 933d a43e b4e4 cd3e 37a1 be3e

mlp.6.running_var f4 [32]
0.76685774 0.58243567 0.45503467 0.5194501 0.43997347 0.69165677 0.5707777 0.54516375
0.50969785 0.40998438 0.36486235 0.47071606 0.5201483 0.7443978 0.7330942 0.4878757
0.5205771 0.6426536 0.73439837 0.58153766 0.7026377 0.62414294 0.5864591 0.5374519
0.5452837 0.7403889 0.5244963 0.41860145 0.57329327 0.4 0.58578324 0.5692045
00000000: ca50 443f 811a 153f 4efa e83e affa 043f
00000010: 3444 e13e 6b10 313f 7d1e 123f da8f 0b3f
00000020: 8f7b 023f 79e9 d13e 3dcf ba3e b201 f13e
00000030: 7028 053f db90 3e3f 10ac 3b3f d8ca f93e
00000040: 8a44 053f f284 243f 8801 3c3f a7df 143f
00000050: 10e0 333f d5c7 1f3f 2f22 163f 7396 093f
00000060: b697 0b3f 208a 3d3f 6445 063f ee52 d63e
00000070: 59c3 123f cdcc cc3e e4f5 153f 63b7 113f

mlp.8.weight f4 [16, 32]
0.15536208 -0.26389974 0.19600634 0.021792578 0.2074321 -0.19170125 0.13797049 -0.2872879
-0.020906098 0.0019626343 0.31817907 0.14620818 0.07371509 -0.28116563 -0.27998528 -0.021936677
-0.3299283 -0.32404232 0.11634782 -0.31858215 0.122722454 0.21921243 -0.14173844 -0.247118
-0.0154658705 0.20915392 0.32878497 -0.013981438 0.15072273 0.080860995 -0.2538077 -0.28434005
0.13688307 0.08084135 -0.32884544 -0.25339434 -0.19846281 -0.22749023 0.26502115 0.079857
0.21516879 0.15947199 0.2001724 0.009545024 0.020724144 0.2473491 0.18208405 0.06073053
-0.101353444 0.29565898 0.17106123 0.19769417 -0.18334155 -0.034980547 -0.22135115 0.22872466
0.32806826 0.100985646 0.031565256 -0.06503412 0.31406233 0.11565901 0.33130258 -0.23593558
-0.12705551 0.13610126 -0.18159579 -0.04622023 0.027443647 -0.2072342 -0.08113078 0.22531869
0.019081872 -0.124114774 0.33037546 0.1559242 -0.083684705 -0.22318037 0.32499108 0.0029721525
-0.10727695 0.0152056245 0.075233616 -0.1262406 0.03849855 -0.08759814 0.29994717 -0.18784186
-0.20937715 0.06298376 0.25084043 -0.058781303 0.13082796 -0.1930423 0.030005807 -0.3169317
0.28938586 0.06801119 0.2743547 0.022661693 0.3389348 -0.010595312 0.029745156 0.19808726
-0.05456965 0.28206035 -0.0050741653 0.017293803 -0.06750658 -0.087183274 -0.14002125 0.07350807
0.16854773 -0.21996473 0.27107912 0.22549574 0.032328285 0.07875312 -0.3179037 -0.15059932
-0.15715538 -0.14324456 0.21552931 0.21156323 -0.24437968 0.07736055 0.20516738 -0.30535543
0.03653854 -0.028991582 0.17869051 -0.04875319 -0.3222547 -0.22470793 -0.07796614 -0.14330095
0.099539 -0.24684569 0.15619949 0.2590201 -0.19576927 0.17914799 -0.14349405 -0.13739629
-0.11576311 0.22162059 0.28926617 0.12210622 -0.073799685 -0.28963625 -0.022089921 0.10111725
0.3293249 0.1308403 0.36251596 -0.18326724 -0.26663592 -0.17196481 -0.3053352 -0.0011228134
-0.26395237 0.13892248 -0.17441995 0.25413603 0.27111924 0.31413755 0.05017103 -0.21094851
-0.32111657 0.2687011 -0.08814683 -0.25040862 -0.31685758 -0.09624813 -0.027182963 -0.28491643
0.26453218 0.05475451 -0.26053402 -0.31804615 0.3410663 -0.21370089 -0.16645133 -0.27181625
0.18487681 0.18142933 -0.0404179 -0.052046288 -0.16601473 0.106135674 0.010539548 0.07846479
-0.27239454 0.2617769 -0.2243155 0.3394677 0.2877873 -0.2939003 0.31984767 0.029543683
0.35462558 0.17276935 -0.31998843 0.064989105 -0.34308353 0.09331144 -0.31070328 0.18388839
-0.13349643 0.10603989 -0.17382643 0.3163385 0.31179863 0.031520993 -0.17796378 -0.11716155
-0.04411881 -0.11590144 -0.1487103 -0.29153222 0.07709954 -0.12527384 0.16748059 0.06095918
-0.15838318 -0.25445336 -0.0025763577 -0.043095544 0.09330253 0.30127928 0.14923397 -0.07807504
-0.07114377 0.07419783 0.17727962 0.06772042 -0.1503044 -0.003997123 0.1945039 -0.16689588
0.009279783 -0.26775828 -0.18763158 0.028694993 -0.08082409 -0.33183253 0.22825523 0.07143538
0.20471208 0.10707112 0.29789189 -0.20542787 -0.11393717 -0.014159654 -0.17990927 0.011284556
00000000: 3d17 1f3e de1d 87be e3b5 483e 5986 b23c
00000010: 1569 543e 554d 44be 2348 0d3e 6617 93be
00000020: 4443 abbc 8a9f 003b 5ee8 a23e 99b7 153e
00000030: f0f7 963d f1f4 8fbe 3b5a 8fbe 8cb4 b3bc
00000040: 5dec a8be e0e8 a5be c447 ee3d 331d a3be
00000050: e955 fb3d 3979 603e e223 11be 800c 7dbe
00000060: 9064 7dbc 722c 563e 8156 a83e 6712 65bc
00000070: 0f57 1a3e 739a a53d 15f3 81be 0595 91be
00000080: 132b 0c3e 2690 a53d 6e5e a8be e7bc 81be
00000090: d639 4bbe 33f3 68be dab0 873e 118c a33d
000000a0: 3555 5c3e a04c 233e fef9 4c3e bb62 1c3c
000000b0: aec5 a93c 1549 7d3e 3e74 3a3e 94c0 783d
000000c0: 6592 cfbd 9d60 973e ad2a 2f3e 5770 4a3e
000000d0: e3bd 3bbe c347 0fbd e0a9 62be cc36 6a3e
000000e0: 90f8 a73e 90d1 ce3d 924a 013d 9c30 85bd
000000f0: c7cc a03e a2de ec3d 7ea0 a93e 1999 71be
00000100: d71a 02be 215e 0b3e 3ff4 39be 6d51 3dbd
00000110: 80d1 e03c 3435 54be e527 a6bd f1b9 663e
00000120: 9651 9c3c e32f febd f926 a93e 98aa 1f3e
00000130: e362 abbd 6589 64be 3b65 a63e 72c8 423b
00000140: 04b4 dbbd 0321 793c 1514 9a3d 3745 01be
00000150: a8b0 1d3d a766 b3bd ad92 993e 9e59 40be
00000160: f766 56be a1fd 803d 286e 803e aac4 70bd
00000170: c4f7 053e e1ac 45be bdce f53c df44 a2be
00000180: 622a 943e 7349 8b3d 3878 8c3e 04a5 b93c
00000190: dd88 ad3e f697 2dbc 1dac f33c 63d7 4a3e
000001a0: 6d84 5fbd 376a 903e 2f45 a6bb bcab 8d3c
000001b0: e440 8abd 258d b2bd bb61 0fbe 668b 963d
000001c0: c797 2c3e 6f3e 61be e2ca 8a3e 5be8 663e
000001d0: aa6a 043d 5149 a13d 46c4 a2be b536 1abe
000001e0: 57ed 20be b4ae 12be b7b3 5c3e 08a4 583e
000001f0: ab3e 7abe 356f 9e3d 6617 523e 8c57 9cbe
00000200: 70a9 153d c17f edbc a5fa 363e 6db1 47bd
00000210: 91fe a4be d619 66be b6ac 9fbd 7cbd 12be
00000220: 1adb cb3d 1ec5 7cbe c2f2 1f3e 489e 843e
00000230: bd77 48be 9272 373e 1bf0 12be 9db1 0cbe
00000240: 3615 edbd 82f0 623e b21a 943e d312 fa3d
00000250: 4a24 97bd 344b 94be ecf5 b4bc 9016 cf3d
00000260: 469d a83e 00fb 053e b19b b93e 68aa 3bbe
00000270: 8184 88be 8b17 30be e554 9cbe 5e2b 93ba
00000280: c424 87be b241 0e3e 259b 32be 1e1e 823e
00000290: 24d0 8a3e a3d6 a03e 2380 4d3d e302 58be
000002a0: 6469 a4be 3193 893e 5386 b4bd 8f35 80be
000002b0: 283b a2be bd1d c5bd ceae debc 91e0 91be
000002c0: c370 873e 4446 603d b764 85be f2d6 a2be
000002d0: 3ea0 ae3e 68d4 5abe 3872 2abe 802b 8bbe
000002e0: 5950 3d3e 9cc8 393e 3d8d 25bd 7d2e 55bd
000002f0: c4ff 29be a95d d93d 11ae 2c3c 26b2 a03d
00000300: 4c77 8bbe 9f07 863e f6b2 65be b6ce ad3e
00000310: db58 933e 1a7a 96be 13c3 a33e 9805 f23c
00000320: 7c91 b53e 73ea 303e 86d5 a3be 0219 853d
00000330: a5a8 afbe 111a bf3d 8014 9fbe 3d4d 3c3e
00000340: 4ab3 08be 712b d93d 8eff 31be 1ff7 a13e
00000350: 12a4 9f3e 281c 013d 233c 36be 65f2 efbd
00000360: edb5 34bd bc5d edbd 8347 18be b643 95be
00000370: 5de6 9d3d c947 00be 0880 2b3e 55b0 793d
00000380: 332f 22be b647 82be 1cd8 28bb f484 30bd
00000390: 6615 bf3d 4741 9a3e cad0 183e cee5 9fbd
000003a0: d3b3 91bd 08f5 973d ca88 353e 01b1 8a3d
000003b0: 66e9 19be 4cfa 82bb 082c 473e c1e6 2abe
000003c0: 3b0a 183c 9d17 89be 7e22 40be c311 eb3c
000003d0: 1a87 a5bd f4e5 a9be bdbb 693e b64c 923d
000003e0: 0ba0 513e 1a48 db3d 4985 983e af5b 52be
000003f0: e457 e9bd e5fd 67bc 233a 38be dce2 383c

mlp.8.bias f4 [16]
-0.0024296732 0.0049793846 -0.0079565 -0.0071221166 0.0003925067 -0.0031727687 -0.008326478 0.007815105
-0.0038502675 0.00945025 0.0027947393 -0.003567294 -0.008371523 -0.0050292057 -0.010812204 0.01259044
00000000: 273b 1fbb 1b2a a33b fb5b 02bc a560 e9bb
00000010: 5cc9 cd39 3aee 4fbb c86b 08bc ed0a 003c
00000020: c554 7cbb 39d5 1a3c f227 373b 43c9 69bb
00000030: b628 09bc 09cc a4bb ac25 31bc 2248 4e3c

mlp.10.weight f4 [16]
0.9932295 0.9857345 0.99274874 0.9915748 1.0081345 0.9977607 0.98977405 0.998498
0.99682266 0.98389316 1.0109963 0.9894236 1.0035883 1.005184 0.99780613 0.9928303
00000000: 4a44 7e3f 1959 7c3f c824 7e3f d9d7 7d3f
00000010: 8d0a 813f 3f6d 7f3f d561 7d3f 919d 7f3f
00000020: c52f 7f3f 6ce0 7b3f 5468 813f dd4a 7d3f
00000030: 9575 803f dfa9 803f 3970 7f3f 202a 7e3f

mlp.10.bias f4 [16]
0.018417811 0.018299947 0.018832507 -0.018561108 -0.019069208 -0.018144958 -0.018755177 0.01951343
0.018456545 -0.018770237 -0.019379115 0.018898472 0.018770987 0.019253157 -0.018044464 0.01797326
00000000: f3e0 963c c5e9 953c a146 9a3c 770d 98bc
00000010: 0737 9cbc bca4 94bc 75a4 99bc a1da 9f3c
00000020: 2e32 973c 0ac4 99bc f3c0 9ebc f8d0 9a3c
00000030: 9dc5 993c ccb8 9d3c fcd1 93bc a83c 933c

mlp.10.running_mean f4 [16]
0.46273085 0.53715885 0.36399642 0.35841045 0.3976967 0.5111437 0.44678062 0.35110947
0.41796443 0.5352588 0.38807267 0.61771417 0.62008685 0.45905176 0.3903086 0.3890908
00000000: 0feb ec3e 3e83 093f bd5d ba3e 9381 b73e
00000010: e79e cb3e 50da 023f 6ec0 e43e 9fc4 b33e
00000020: 6fff d53e b906 093f 76b1 c63e 8422 1e3f
00000030: 03be 1e3f d508 eb3e 87d6 c73e e936 c73e

mlp.10.running_var f4 [16]
0.70294327 0.78300726 0.5699541 0.46640965 0.54282135 0.67295235 0.72551155 0.3919507
0.5503743 0.80130637 0.49367994 1.0132043 1.0965307 0.5773129 0.68350637 0.47417396
00000000: 17f4 333f 2a73 483f 83e8 113f 3fcd ee3e
00000010: 57f6 0a3f 9b46 2c3f 20bb 393f c3ad c83e
00000020: 55e5 0c3f 6a22 4d3f 9ec3 fc3e aeb0 813f
00000030: 1e5b 8c3f c7ca 133f 46fa 2e3f eec6 f23e

mlp.12.weight f4 [1, 16]
0.5249217 0.42930725 0.15918814 -0.05135424 -0.56226385 -0.490964 -0.52680063 0.09802562
0.22856353 -0.46822217 -0.38490704 0.5590342 0.32814887 0.44045258 -0.32866225 0.47685176
00000000: 4561 063f 29ce db3e 3702 233e d358 52bd
00000010: 86f0 0fbf a25f fbbe 68dc 06bf a8c1 c83d
00000020: 8f0c 6a3e d1ba efbe 8912 c5be de1c 0f3f
00000030: 2103 a83e 0083 e13e 6b46 a8be ea25 f43e
